<?xml version="1.0"?>
<net name="model_1" version="11">
	<layers>
		<layer id="1" name="input_1" type="Parameter" version="opset1">
			<data shape="1,3,416,416" element_type="f32" />
			<output>
				<port id="0" precision="FP32" names="input_1">
					<dim>1</dim>
					<dim>3</dim>
					<dim>416</dim>
					<dim>416</dim>
					<rt_info>
						<attribute name="layout" version="0" layout="[N,C,H,W]" />
					</rt_info>
				</port>
			</output>
		</layer>
		<layer id="0" name="image_shape" type="Parameter" version="opset1">
			<data shape="1,2" element_type="f32" />
			<output>
				<port id="0" precision="FP32" names="image_shape">
					<dim>1</dim>
					<dim>2</dim>
					<rt_info>
						<attribute name="layout" version="0" layout="[N,C]" />
					</rt_info>
				</port>
			</output>
		</layer>
		<layer id="2" name="Gather_20065" type="Const" version="opset1">
			<data element_type="f32" shape="16, 3, 3, 3" offset="0" size="1728" />
			<output>
				<port id="0" precision="FP32">
					<dim>16</dim>
					<dim>3</dim>
					<dim>3</dim>
					<dim>3</dim>
				</port>
			</output>
		</layer>
		<layer id="3" name="Multiply_18672" type="Convolution" version="opset1">
			<data strides="1, 1" dilations="1, 1" pads_begin="0, 0" pads_end="0, 0" auto_pad="same_upper" />
			<rt_info>
				<attribute name="preprocessing" version="0" />
			</rt_info>
			<input>
				<port id="0" precision="FP32">
					<dim>1</dim>
					<dim>3</dim>
					<dim>416</dim>
					<dim>416</dim>
				</port>
				<port id="1" precision="FP32">
					<dim>16</dim>
					<dim>3</dim>
					<dim>3</dim>
					<dim>3</dim>
				</port>
			</input>
			<output>
				<port id="2" precision="FP32">
					<dim>1</dim>
					<dim>16</dim>
					<dim>416</dim>
					<dim>416</dim>
				</port>
			</output>
		</layer>
		<layer id="4" name="Constant_18677" type="Const" version="opset1">
			<data element_type="f32" shape="1, 16, 1, 1" offset="1728" size="64" />
			<output>
				<port id="0" precision="FP32">
					<dim>1</dim>
					<dim>16</dim>
					<dim>1</dim>
					<dim>1</dim>
				</port>
			</output>
		</layer>
		<layer id="5" name="batch_normalization_1" type="Add" version="opset1">
			<data auto_broadcast="numpy" />
			<input>
				<port id="0" precision="FP32">
					<dim>1</dim>
					<dim>16</dim>
					<dim>416</dim>
					<dim>416</dim>
				</port>
				<port id="1" precision="FP32">
					<dim>1</dim>
					<dim>16</dim>
					<dim>1</dim>
					<dim>1</dim>
				</port>
			</input>
			<output>
				<port id="2" precision="FP32" names="batch_norm_output_buffer10">
					<dim>1</dim>
					<dim>16</dim>
					<dim>416</dim>
					<dim>416</dim>
				</port>
			</output>
		</layer>
		<layer id="6" name="Constant_274" type="Const" version="opset1">
			<data element_type="f32" shape="1" offset="1792" size="4" />
			<output>
				<port id="0" precision="FP32">
					<dim>1</dim>
				</port>
			</output>
		</layer>
		<layer id="7" name="leaky_re_lu_1" type="PReLU" version="opset1">
			<input>
				<port id="0" precision="FP32">
					<dim>1</dim>
					<dim>16</dim>
					<dim>416</dim>
					<dim>416</dim>
				</port>
				<port id="1" precision="FP32">
					<dim>1</dim>
				</port>
			</input>
			<output>
				<port id="2" precision="FP32" names="model_1/leaky_re_lu_1/LeakyRelu:0">
					<dim>1</dim>
					<dim>16</dim>
					<dim>416</dim>
					<dim>416</dim>
				</port>
			</output>
		</layer>
		<layer id="8" name="model_1/leaky_re_lu_1/LeakyRelu:0_pooling" type="MaxPool" version="opset8">
			<data strides="2, 2" dilations="1, 1" pads_begin="0, 0" pads_end="0, 0" kernel="2, 2" rounding_type="floor" auto_pad="same_upper" index_element_type="i64" axis="0" />
			<input>
				<port id="0" precision="FP32">
					<dim>1</dim>
					<dim>16</dim>
					<dim>416</dim>
					<dim>416</dim>
				</port>
			</input>
			<output>
				<port id="1" precision="FP32" names="model_1/leaky_re_lu_1/LeakyRelu:0_pooling0">
					<dim>1</dim>
					<dim>16</dim>
					<dim>208</dim>
					<dim>208</dim>
				</port>
				<port id="2" precision="I64">
					<dim>1</dim>
					<dim>16</dim>
					<dim>208</dim>
					<dim>208</dim>
				</port>
			</output>
		</layer>
		<layer id="9" name="Multiply_18771" type="Const" version="opset1">
			<data element_type="f32" shape="32, 16, 3, 3" offset="1796" size="18432" />
			<output>
				<port id="0" precision="FP32">
					<dim>32</dim>
					<dim>16</dim>
					<dim>3</dim>
					<dim>3</dim>
				</port>
			</output>
		</layer>
		<layer id="10" name="Multiply_18679" type="Convolution" version="opset1">
			<data strides="1, 1" dilations="1, 1" pads_begin="0, 0" pads_end="0, 0" auto_pad="same_upper" />
			<input>
				<port id="0" precision="FP32">
					<dim>1</dim>
					<dim>16</dim>
					<dim>208</dim>
					<dim>208</dim>
				</port>
				<port id="1" precision="FP32">
					<dim>32</dim>
					<dim>16</dim>
					<dim>3</dim>
					<dim>3</dim>
				</port>
			</input>
			<output>
				<port id="2" precision="FP32">
					<dim>1</dim>
					<dim>32</dim>
					<dim>208</dim>
					<dim>208</dim>
				</port>
			</output>
		</layer>
		<layer id="11" name="Constant_18684" type="Const" version="opset1">
			<data element_type="f32" shape="1, 32, 1, 1" offset="20228" size="128" />
			<output>
				<port id="0" precision="FP32">
					<dim>1</dim>
					<dim>32</dim>
					<dim>1</dim>
					<dim>1</dim>
				</port>
			</output>
		</layer>
		<layer id="12" name="batch_normalization_2" type="Add" version="opset1">
			<data auto_broadcast="numpy" />
			<input>
				<port id="0" precision="FP32">
					<dim>1</dim>
					<dim>32</dim>
					<dim>208</dim>
					<dim>208</dim>
				</port>
				<port id="1" precision="FP32">
					<dim>1</dim>
					<dim>32</dim>
					<dim>1</dim>
					<dim>1</dim>
				</port>
			</input>
			<output>
				<port id="2" precision="FP32" names="batch_norm_output_buffer9">
					<dim>1</dim>
					<dim>32</dim>
					<dim>208</dim>
					<dim>208</dim>
				</port>
			</output>
		</layer>
		<layer id="13" name="Constant_280" type="Const" version="opset1">
			<data element_type="f32" shape="1" offset="1792" size="4" />
			<output>
				<port id="0" precision="FP32">
					<dim>1</dim>
				</port>
			</output>
		</layer>
		<layer id="14" name="leaky_re_lu_2" type="PReLU" version="opset1">
			<input>
				<port id="0" precision="FP32">
					<dim>1</dim>
					<dim>32</dim>
					<dim>208</dim>
					<dim>208</dim>
				</port>
				<port id="1" precision="FP32">
					<dim>1</dim>
				</port>
			</input>
			<output>
				<port id="2" precision="FP32" names="model_1/leaky_re_lu_2/LeakyRelu:0">
					<dim>1</dim>
					<dim>32</dim>
					<dim>208</dim>
					<dim>208</dim>
				</port>
			</output>
		</layer>
		<layer id="15" name="model_1/leaky_re_lu_2/LeakyRelu:0_pooling" type="MaxPool" version="opset8">
			<data strides="2, 2" dilations="1, 1" pads_begin="0, 0" pads_end="0, 0" kernel="2, 2" rounding_type="floor" auto_pad="same_upper" index_element_type="i64" axis="0" />
			<input>
				<port id="0" precision="FP32">
					<dim>1</dim>
					<dim>32</dim>
					<dim>208</dim>
					<dim>208</dim>
				</port>
			</input>
			<output>
				<port id="1" precision="FP32" names="model_1/leaky_re_lu_2/LeakyRelu:0_pooling0">
					<dim>1</dim>
					<dim>32</dim>
					<dim>104</dim>
					<dim>104</dim>
				</port>
				<port id="2" precision="I64">
					<dim>1</dim>
					<dim>32</dim>
					<dim>104</dim>
					<dim>104</dim>
				</port>
			</output>
		</layer>
		<layer id="16" name="Multiply_18780" type="Const" version="opset1">
			<data element_type="f32" shape="64, 32, 3, 3" offset="20356" size="73728" />
			<output>
				<port id="0" precision="FP32">
					<dim>64</dim>
					<dim>32</dim>
					<dim>3</dim>
					<dim>3</dim>
				</port>
			</output>
		</layer>
		<layer id="17" name="Multiply_18686" type="Convolution" version="opset1">
			<data strides="1, 1" dilations="1, 1" pads_begin="0, 0" pads_end="0, 0" auto_pad="same_upper" />
			<input>
				<port id="0" precision="FP32">
					<dim>1</dim>
					<dim>32</dim>
					<dim>104</dim>
					<dim>104</dim>
				</port>
				<port id="1" precision="FP32">
					<dim>64</dim>
					<dim>32</dim>
					<dim>3</dim>
					<dim>3</dim>
				</port>
			</input>
			<output>
				<port id="2" precision="FP32">
					<dim>1</dim>
					<dim>64</dim>
					<dim>104</dim>
					<dim>104</dim>
				</port>
			</output>
		</layer>
		<layer id="18" name="Constant_18691" type="Const" version="opset1">
			<data element_type="f32" shape="1, 64, 1, 1" offset="94084" size="256" />
			<output>
				<port id="0" precision="FP32">
					<dim>1</dim>
					<dim>64</dim>
					<dim>1</dim>
					<dim>1</dim>
				</port>
			</output>
		</layer>
		<layer id="19" name="batch_normalization_3" type="Add" version="opset1">
			<data auto_broadcast="numpy" />
			<input>
				<port id="0" precision="FP32">
					<dim>1</dim>
					<dim>64</dim>
					<dim>104</dim>
					<dim>104</dim>
				</port>
				<port id="1" precision="FP32">
					<dim>1</dim>
					<dim>64</dim>
					<dim>1</dim>
					<dim>1</dim>
				</port>
			</input>
			<output>
				<port id="2" precision="FP32" names="batch_norm_output_buffer8">
					<dim>1</dim>
					<dim>64</dim>
					<dim>104</dim>
					<dim>104</dim>
				</port>
			</output>
		</layer>
		<layer id="20" name="Constant_286" type="Const" version="opset1">
			<data element_type="f32" shape="1" offset="1792" size="4" />
			<output>
				<port id="0" precision="FP32">
					<dim>1</dim>
				</port>
			</output>
		</layer>
		<layer id="21" name="leaky_re_lu_3" type="PReLU" version="opset1">
			<input>
				<port id="0" precision="FP32">
					<dim>1</dim>
					<dim>64</dim>
					<dim>104</dim>
					<dim>104</dim>
				</port>
				<port id="1" precision="FP32">
					<dim>1</dim>
				</port>
			</input>
			<output>
				<port id="2" precision="FP32" names="model_1/leaky_re_lu_3/LeakyRelu:0">
					<dim>1</dim>
					<dim>64</dim>
					<dim>104</dim>
					<dim>104</dim>
				</port>
			</output>
		</layer>
		<layer id="22" name="model_1/leaky_re_lu_3/LeakyRelu:0_pooling" type="MaxPool" version="opset8">
			<data strides="2, 2" dilations="1, 1" pads_begin="0, 0" pads_end="0, 0" kernel="2, 2" rounding_type="floor" auto_pad="same_upper" index_element_type="i64" axis="0" />
			<input>
				<port id="0" precision="FP32">
					<dim>1</dim>
					<dim>64</dim>
					<dim>104</dim>
					<dim>104</dim>
				</port>
			</input>
			<output>
				<port id="1" precision="FP32" names="model_1/leaky_re_lu_3/LeakyRelu:0_pooling0">
					<dim>1</dim>
					<dim>64</dim>
					<dim>52</dim>
					<dim>52</dim>
				</port>
				<port id="2" precision="I64">
					<dim>1</dim>
					<dim>64</dim>
					<dim>52</dim>
					<dim>52</dim>
				</port>
			</output>
		</layer>
		<layer id="23" name="Multiply_18789" type="Const" version="opset1">
			<data element_type="f32" shape="128, 64, 3, 3" offset="94340" size="294912" />
			<output>
				<port id="0" precision="FP32">
					<dim>128</dim>
					<dim>64</dim>
					<dim>3</dim>
					<dim>3</dim>
				</port>
			</output>
		</layer>
		<layer id="24" name="Multiply_18693" type="Convolution" version="opset1">
			<data strides="1, 1" dilations="1, 1" pads_begin="0, 0" pads_end="0, 0" auto_pad="same_upper" />
			<input>
				<port id="0" precision="FP32">
					<dim>1</dim>
					<dim>64</dim>
					<dim>52</dim>
					<dim>52</dim>
				</port>
				<port id="1" precision="FP32">
					<dim>128</dim>
					<dim>64</dim>
					<dim>3</dim>
					<dim>3</dim>
				</port>
			</input>
			<output>
				<port id="2" precision="FP32">
					<dim>1</dim>
					<dim>128</dim>
					<dim>52</dim>
					<dim>52</dim>
				</port>
			</output>
		</layer>
		<layer id="25" name="Constant_18698" type="Const" version="opset1">
			<data element_type="f32" shape="1, 128, 1, 1" offset="389252" size="512" />
			<output>
				<port id="0" precision="FP32">
					<dim>1</dim>
					<dim>128</dim>
					<dim>1</dim>
					<dim>1</dim>
				</port>
			</output>
		</layer>
		<layer id="26" name="batch_normalization_4" type="Add" version="opset1">
			<data auto_broadcast="numpy" />
			<input>
				<port id="0" precision="FP32">
					<dim>1</dim>
					<dim>128</dim>
					<dim>52</dim>
					<dim>52</dim>
				</port>
				<port id="1" precision="FP32">
					<dim>1</dim>
					<dim>128</dim>
					<dim>1</dim>
					<dim>1</dim>
				</port>
			</input>
			<output>
				<port id="2" precision="FP32" names="batch_norm_output_buffer7">
					<dim>1</dim>
					<dim>128</dim>
					<dim>52</dim>
					<dim>52</dim>
				</port>
			</output>
		</layer>
		<layer id="27" name="Constant_292" type="Const" version="opset1">
			<data element_type="f32" shape="1" offset="1792" size="4" />
			<output>
				<port id="0" precision="FP32">
					<dim>1</dim>
				</port>
			</output>
		</layer>
		<layer id="28" name="leaky_re_lu_4" type="PReLU" version="opset1">
			<input>
				<port id="0" precision="FP32">
					<dim>1</dim>
					<dim>128</dim>
					<dim>52</dim>
					<dim>52</dim>
				</port>
				<port id="1" precision="FP32">
					<dim>1</dim>
				</port>
			</input>
			<output>
				<port id="2" precision="FP32" names="model_1/leaky_re_lu_4/LeakyRelu:0">
					<dim>1</dim>
					<dim>128</dim>
					<dim>52</dim>
					<dim>52</dim>
				</port>
			</output>
		</layer>
		<layer id="29" name="model_1/leaky_re_lu_4/LeakyRelu:0_pooling" type="MaxPool" version="opset8">
			<data strides="2, 2" dilations="1, 1" pads_begin="0, 0" pads_end="0, 0" kernel="2, 2" rounding_type="floor" auto_pad="same_upper" index_element_type="i64" axis="0" />
			<input>
				<port id="0" precision="FP32">
					<dim>1</dim>
					<dim>128</dim>
					<dim>52</dim>
					<dim>52</dim>
				</port>
			</input>
			<output>
				<port id="1" precision="FP32" names="model_1/leaky_re_lu_4/LeakyRelu:0_pooling0">
					<dim>1</dim>
					<dim>128</dim>
					<dim>26</dim>
					<dim>26</dim>
				</port>
				<port id="2" precision="I64">
					<dim>1</dim>
					<dim>128</dim>
					<dim>26</dim>
					<dim>26</dim>
				</port>
			</output>
		</layer>
		<layer id="30" name="Multiply_18798" type="Const" version="opset1">
			<data element_type="f32" shape="256, 128, 3, 3" offset="389764" size="1179648" />
			<output>
				<port id="0" precision="FP32">
					<dim>256</dim>
					<dim>128</dim>
					<dim>3</dim>
					<dim>3</dim>
				</port>
			</output>
		</layer>
		<layer id="31" name="Multiply_18700" type="Convolution" version="opset1">
			<data strides="1, 1" dilations="1, 1" pads_begin="0, 0" pads_end="0, 0" auto_pad="same_upper" />
			<input>
				<port id="0" precision="FP32">
					<dim>1</dim>
					<dim>128</dim>
					<dim>26</dim>
					<dim>26</dim>
				</port>
				<port id="1" precision="FP32">
					<dim>256</dim>
					<dim>128</dim>
					<dim>3</dim>
					<dim>3</dim>
				</port>
			</input>
			<output>
				<port id="2" precision="FP32">
					<dim>1</dim>
					<dim>256</dim>
					<dim>26</dim>
					<dim>26</dim>
				</port>
			</output>
		</layer>
		<layer id="32" name="Constant_18705" type="Const" version="opset1">
			<data element_type="f32" shape="1, 256, 1, 1" offset="1569412" size="1024" />
			<output>
				<port id="0" precision="FP32">
					<dim>1</dim>
					<dim>256</dim>
					<dim>1</dim>
					<dim>1</dim>
				</port>
			</output>
		</layer>
		<layer id="33" name="batch_normalization_5" type="Add" version="opset1">
			<data auto_broadcast="numpy" />
			<input>
				<port id="0" precision="FP32">
					<dim>1</dim>
					<dim>256</dim>
					<dim>26</dim>
					<dim>26</dim>
				</port>
				<port id="1" precision="FP32">
					<dim>1</dim>
					<dim>256</dim>
					<dim>1</dim>
					<dim>1</dim>
				</port>
			</input>
			<output>
				<port id="2" precision="FP32" names="batch_norm_output_buffer6">
					<dim>1</dim>
					<dim>256</dim>
					<dim>26</dim>
					<dim>26</dim>
				</port>
			</output>
		</layer>
		<layer id="34" name="Constant_298" type="Const" version="opset1">
			<data element_type="f32" shape="1" offset="1792" size="4" />
			<output>
				<port id="0" precision="FP32">
					<dim>1</dim>
				</port>
			</output>
		</layer>
		<layer id="35" name="leaky_re_lu_5" type="PReLU" version="opset1">
			<input>
				<port id="0" precision="FP32">
					<dim>1</dim>
					<dim>256</dim>
					<dim>26</dim>
					<dim>26</dim>
				</port>
				<port id="1" precision="FP32">
					<dim>1</dim>
				</port>
			</input>
			<output>
				<port id="2" precision="FP32" names="model_1/leaky_re_lu_5/LeakyRelu:0">
					<dim>1</dim>
					<dim>256</dim>
					<dim>26</dim>
					<dim>26</dim>
				</port>
			</output>
		</layer>
		<layer id="36" name="model_1/leaky_re_lu_5/LeakyRelu:0_pooling" type="MaxPool" version="opset8">
			<data strides="2, 2" dilations="1, 1" pads_begin="0, 0" pads_end="0, 0" kernel="2, 2" rounding_type="floor" auto_pad="same_upper" index_element_type="i64" axis="0" />
			<input>
				<port id="0" precision="FP32">
					<dim>1</dim>
					<dim>256</dim>
					<dim>26</dim>
					<dim>26</dim>
				</port>
			</input>
			<output>
				<port id="1" precision="FP32" names="model_1/leaky_re_lu_5/LeakyRelu:0_pooling0">
					<dim>1</dim>
					<dim>256</dim>
					<dim>13</dim>
					<dim>13</dim>
				</port>
				<port id="2" precision="I64">
					<dim>1</dim>
					<dim>256</dim>
					<dim>13</dim>
					<dim>13</dim>
				</port>
			</output>
		</layer>
		<layer id="37" name="Multiply_18807" type="Const" version="opset1">
			<data element_type="f32" shape="512, 256, 3, 3" offset="1570436" size="4718592" />
			<output>
				<port id="0" precision="FP32">
					<dim>512</dim>
					<dim>256</dim>
					<dim>3</dim>
					<dim>3</dim>
				</port>
			</output>
		</layer>
		<layer id="38" name="Multiply_18707" type="Convolution" version="opset1">
			<data strides="1, 1" dilations="1, 1" pads_begin="0, 0" pads_end="0, 0" auto_pad="same_upper" />
			<input>
				<port id="0" precision="FP32">
					<dim>1</dim>
					<dim>256</dim>
					<dim>13</dim>
					<dim>13</dim>
				</port>
				<port id="1" precision="FP32">
					<dim>512</dim>
					<dim>256</dim>
					<dim>3</dim>
					<dim>3</dim>
				</port>
			</input>
			<output>
				<port id="2" precision="FP32">
					<dim>1</dim>
					<dim>512</dim>
					<dim>13</dim>
					<dim>13</dim>
				</port>
			</output>
		</layer>
		<layer id="39" name="Constant_18712" type="Const" version="opset1">
			<data element_type="f32" shape="1, 512, 1, 1" offset="6289028" size="2048" />
			<output>
				<port id="0" precision="FP32">
					<dim>1</dim>
					<dim>512</dim>
					<dim>1</dim>
					<dim>1</dim>
				</port>
			</output>
		</layer>
		<layer id="40" name="batch_normalization_6" type="Add" version="opset1">
			<data auto_broadcast="numpy" />
			<input>
				<port id="0" precision="FP32">
					<dim>1</dim>
					<dim>512</dim>
					<dim>13</dim>
					<dim>13</dim>
				</port>
				<port id="1" precision="FP32">
					<dim>1</dim>
					<dim>512</dim>
					<dim>1</dim>
					<dim>1</dim>
				</port>
			</input>
			<output>
				<port id="2" precision="FP32" names="batch_norm_output_buffer5">
					<dim>1</dim>
					<dim>512</dim>
					<dim>13</dim>
					<dim>13</dim>
				</port>
			</output>
		</layer>
		<layer id="41" name="Constant_304" type="Const" version="opset1">
			<data element_type="f32" shape="1" offset="1792" size="4" />
			<output>
				<port id="0" precision="FP32">
					<dim>1</dim>
				</port>
			</output>
		</layer>
		<layer id="42" name="leaky_re_lu_6" type="PReLU" version="opset1">
			<input>
				<port id="0" precision="FP32">
					<dim>1</dim>
					<dim>512</dim>
					<dim>13</dim>
					<dim>13</dim>
				</port>
				<port id="1" precision="FP32">
					<dim>1</dim>
				</port>
			</input>
			<output>
				<port id="2" precision="FP32" names="model_1/leaky_re_lu_6/LeakyRelu:0">
					<dim>1</dim>
					<dim>512</dim>
					<dim>13</dim>
					<dim>13</dim>
				</port>
			</output>
		</layer>
		<layer id="43" name="model_1/leaky_re_lu_6/LeakyRelu:0_pooling" type="MaxPool" version="opset8">
			<data strides="1, 1" dilations="1, 1" pads_begin="0, 0" pads_end="0, 0" kernel="2, 2" rounding_type="floor" auto_pad="same_upper" index_element_type="i64" axis="0" />
			<input>
				<port id="0" precision="FP32">
					<dim>1</dim>
					<dim>512</dim>
					<dim>13</dim>
					<dim>13</dim>
				</port>
			</input>
			<output>
				<port id="1" precision="FP32" names="model_1/leaky_re_lu_6/LeakyRelu:0_pooling0">
					<dim>1</dim>
					<dim>512</dim>
					<dim>13</dim>
					<dim>13</dim>
				</port>
				<port id="2" precision="I64">
					<dim>1</dim>
					<dim>512</dim>
					<dim>13</dim>
					<dim>13</dim>
				</port>
			</output>
		</layer>
		<layer id="44" name="Multiply_18816" type="Const" version="opset1">
			<data element_type="f32" shape="1024, 512, 3, 3" offset="6291076" size="18874368" />
			<output>
				<port id="0" precision="FP32">
					<dim>1024</dim>
					<dim>512</dim>
					<dim>3</dim>
					<dim>3</dim>
				</port>
			</output>
		</layer>
		<layer id="45" name="Multiply_18714" type="Convolution" version="opset1">
			<data strides="1, 1" dilations="1, 1" pads_begin="0, 0" pads_end="0, 0" auto_pad="same_upper" />
			<input>
				<port id="0" precision="FP32">
					<dim>1</dim>
					<dim>512</dim>
					<dim>13</dim>
					<dim>13</dim>
				</port>
				<port id="1" precision="FP32">
					<dim>1024</dim>
					<dim>512</dim>
					<dim>3</dim>
					<dim>3</dim>
				</port>
			</input>
			<output>
				<port id="2" precision="FP32">
					<dim>1</dim>
					<dim>1024</dim>
					<dim>13</dim>
					<dim>13</dim>
				</port>
			</output>
		</layer>
		<layer id="46" name="Constant_18719" type="Const" version="opset1">
			<data element_type="f32" shape="1, 1024, 1, 1" offset="25165444" size="4096" />
			<output>
				<port id="0" precision="FP32">
					<dim>1</dim>
					<dim>1024</dim>
					<dim>1</dim>
					<dim>1</dim>
				</port>
			</output>
		</layer>
		<layer id="47" name="batch_normalization_7" type="Add" version="opset1">
			<data auto_broadcast="numpy" />
			<input>
				<port id="0" precision="FP32">
					<dim>1</dim>
					<dim>1024</dim>
					<dim>13</dim>
					<dim>13</dim>
				</port>
				<port id="1" precision="FP32">
					<dim>1</dim>
					<dim>1024</dim>
					<dim>1</dim>
					<dim>1</dim>
				</port>
			</input>
			<output>
				<port id="2" precision="FP32" names="batch_norm_output_buffer4">
					<dim>1</dim>
					<dim>1024</dim>
					<dim>13</dim>
					<dim>13</dim>
				</port>
			</output>
		</layer>
		<layer id="48" name="Constant_310" type="Const" version="opset1">
			<data element_type="f32" shape="1" offset="1792" size="4" />
			<output>
				<port id="0" precision="FP32">
					<dim>1</dim>
				</port>
			</output>
		</layer>
		<layer id="49" name="leaky_re_lu_7" type="PReLU" version="opset1">
			<input>
				<port id="0" precision="FP32">
					<dim>1</dim>
					<dim>1024</dim>
					<dim>13</dim>
					<dim>13</dim>
				</port>
				<port id="1" precision="FP32">
					<dim>1</dim>
				</port>
			</input>
			<output>
				<port id="2" precision="FP32" names="model_1/leaky_re_lu_7/LeakyRelu:0">
					<dim>1</dim>
					<dim>1024</dim>
					<dim>13</dim>
					<dim>13</dim>
				</port>
			</output>
		</layer>
		<layer id="50" name="Multiply_18825" type="Const" version="opset1">
			<data element_type="f32" shape="256, 1024, 1, 1" offset="25169540" size="1048576" />
			<output>
				<port id="0" precision="FP32">
					<dim>256</dim>
					<dim>1024</dim>
					<dim>1</dim>
					<dim>1</dim>
				</port>
			</output>
		</layer>
		<layer id="51" name="Multiply_18721" type="Convolution" version="opset1">
			<data strides="1, 1" dilations="1, 1" pads_begin="0, 0" pads_end="0, 0" auto_pad="same_upper" />
			<input>
				<port id="0" precision="FP32">
					<dim>1</dim>
					<dim>1024</dim>
					<dim>13</dim>
					<dim>13</dim>
				</port>
				<port id="1" precision="FP32">
					<dim>256</dim>
					<dim>1024</dim>
					<dim>1</dim>
					<dim>1</dim>
				</port>
			</input>
			<output>
				<port id="2" precision="FP32">
					<dim>1</dim>
					<dim>256</dim>
					<dim>13</dim>
					<dim>13</dim>
				</port>
			</output>
		</layer>
		<layer id="52" name="Constant_18726" type="Const" version="opset1">
			<data element_type="f32" shape="1, 256, 1, 1" offset="26218116" size="1024" />
			<output>
				<port id="0" precision="FP32">
					<dim>1</dim>
					<dim>256</dim>
					<dim>1</dim>
					<dim>1</dim>
				</port>
			</output>
		</layer>
		<layer id="53" name="batch_normalization_8" type="Add" version="opset1">
			<data auto_broadcast="numpy" />
			<input>
				<port id="0" precision="FP32">
					<dim>1</dim>
					<dim>256</dim>
					<dim>13</dim>
					<dim>13</dim>
				</port>
				<port id="1" precision="FP32">
					<dim>1</dim>
					<dim>256</dim>
					<dim>1</dim>
					<dim>1</dim>
				</port>
			</input>
			<output>
				<port id="2" precision="FP32" names="batch_norm_output_buffer3">
					<dim>1</dim>
					<dim>256</dim>
					<dim>13</dim>
					<dim>13</dim>
				</port>
			</output>
		</layer>
		<layer id="54" name="Constant_315" type="Const" version="opset1">
			<data element_type="f32" shape="1" offset="1792" size="4" />
			<output>
				<port id="0" precision="FP32">
					<dim>1</dim>
				</port>
			</output>
		</layer>
		<layer id="55" name="leaky_re_lu_8" type="PReLU" version="opset1">
			<input>
				<port id="0" precision="FP32">
					<dim>1</dim>
					<dim>256</dim>
					<dim>13</dim>
					<dim>13</dim>
				</port>
				<port id="1" precision="FP32">
					<dim>1</dim>
				</port>
			</input>
			<output>
				<port id="2" precision="FP32" names="model_1/leaky_re_lu_8/LeakyRelu:0">
					<dim>1</dim>
					<dim>256</dim>
					<dim>13</dim>
					<dim>13</dim>
				</port>
			</output>
		</layer>
		<layer id="56" name="Multiply_18834" type="Const" version="opset1">
			<data element_type="f32" shape="512, 256, 3, 3" offset="26219140" size="4718592" />
			<output>
				<port id="0" precision="FP32">
					<dim>512</dim>
					<dim>256</dim>
					<dim>3</dim>
					<dim>3</dim>
				</port>
			</output>
		</layer>
		<layer id="57" name="Multiply_18728" type="Convolution" version="opset1">
			<data strides="1, 1" dilations="1, 1" pads_begin="0, 0" pads_end="0, 0" auto_pad="same_upper" />
			<input>
				<port id="0" precision="FP32">
					<dim>1</dim>
					<dim>256</dim>
					<dim>13</dim>
					<dim>13</dim>
				</port>
				<port id="1" precision="FP32">
					<dim>512</dim>
					<dim>256</dim>
					<dim>3</dim>
					<dim>3</dim>
				</port>
			</input>
			<output>
				<port id="2" precision="FP32">
					<dim>1</dim>
					<dim>512</dim>
					<dim>13</dim>
					<dim>13</dim>
				</port>
			</output>
		</layer>
		<layer id="58" name="Constant_18733" type="Const" version="opset1">
			<data element_type="f32" shape="1, 512, 1, 1" offset="30937732" size="2048" />
			<output>
				<port id="0" precision="FP32">
					<dim>1</dim>
					<dim>512</dim>
					<dim>1</dim>
					<dim>1</dim>
				</port>
			</output>
		</layer>
		<layer id="59" name="batch_normalization_9" type="Add" version="opset1">
			<data auto_broadcast="numpy" />
			<input>
				<port id="0" precision="FP32">
					<dim>1</dim>
					<dim>512</dim>
					<dim>13</dim>
					<dim>13</dim>
				</port>
				<port id="1" precision="FP32">
					<dim>1</dim>
					<dim>512</dim>
					<dim>1</dim>
					<dim>1</dim>
				</port>
			</input>
			<output>
				<port id="2" precision="FP32" names="batch_norm_output_buffer1">
					<dim>1</dim>
					<dim>512</dim>
					<dim>13</dim>
					<dim>13</dim>
				</port>
			</output>
		</layer>
		<layer id="60" name="Constant_334" type="Const" version="opset1">
			<data element_type="f32" shape="1" offset="1792" size="4" />
			<output>
				<port id="0" precision="FP32">
					<dim>1</dim>
				</port>
			</output>
		</layer>
		<layer id="61" name="leaky_re_lu_9" type="PReLU" version="opset1">
			<input>
				<port id="0" precision="FP32">
					<dim>1</dim>
					<dim>512</dim>
					<dim>13</dim>
					<dim>13</dim>
				</port>
				<port id="1" precision="FP32">
					<dim>1</dim>
				</port>
			</input>
			<output>
				<port id="2" precision="FP32" names="model_1/leaky_re_lu_9/LeakyRelu:0">
					<dim>1</dim>
					<dim>512</dim>
					<dim>13</dim>
					<dim>13</dim>
				</port>
			</output>
		</layer>
		<layer id="62" name="conv2d_10/kernel:0" type="Const" version="opset1">
			<data element_type="f32" shape="255, 512, 1, 1" offset="30939780" size="522240" />
			<output>
				<port id="0" precision="FP32" names="conv2d_10/kernel:0">
					<dim>255</dim>
					<dim>512</dim>
					<dim>1</dim>
					<dim>1</dim>
				</port>
			</output>
		</layer>
		<layer id="63" name="conv2d_10/WithoutBiases" type="Convolution" version="opset1">
			<data strides="1, 1" dilations="1, 1" pads_begin="0, 0" pads_end="0, 0" auto_pad="same_upper" />
			<input>
				<port id="0" precision="FP32">
					<dim>1</dim>
					<dim>512</dim>
					<dim>13</dim>
					<dim>13</dim>
				</port>
				<port id="1" precision="FP32">
					<dim>255</dim>
					<dim>512</dim>
					<dim>1</dim>
					<dim>1</dim>
				</port>
			</input>
			<output>
				<port id="2" precision="FP32">
					<dim>1</dim>
					<dim>255</dim>
					<dim>13</dim>
					<dim>13</dim>
				</port>
			</output>
		</layer>
		<layer id="64" name="Reshape_358" type="Const" version="opset1">
			<data element_type="f32" shape="1, 255, 1, 1" offset="31462020" size="1020" />
			<output>
				<port id="0" precision="FP32">
					<dim>1</dim>
					<dim>255</dim>
					<dim>1</dim>
					<dim>1</dim>
				</port>
			</output>
		</layer>
		<layer id="65" name="conv2d_10" type="Add" version="opset1">
			<data auto_broadcast="numpy" />
			<input>
				<port id="0" precision="FP32">
					<dim>1</dim>
					<dim>255</dim>
					<dim>13</dim>
					<dim>13</dim>
				</port>
				<port id="1" precision="FP32">
					<dim>1</dim>
					<dim>255</dim>
					<dim>1</dim>
					<dim>1</dim>
				</port>
			</input>
			<output>
				<port id="2" precision="FP32" names="convolution_output1">
					<dim>1</dim>
					<dim>255</dim>
					<dim>13</dim>
					<dim>13</dim>
				</port>
			</output>
		</layer>
		<layer id="66" name="Constant_386" type="Const" version="opset1">
			<data element_type="i64" shape="4" offset="31463040" size="32" />
			<output>
				<port id="0" precision="I64">
					<dim>4</dim>
				</port>
			</output>
		</layer>
		<layer id="67" name="TFNodes/model_1/conv2d_10/BiasAdd:0" type="Transpose" version="opset1">
			<input>
				<port id="0" precision="FP32">
					<dim>1</dim>
					<dim>255</dim>
					<dim>13</dim>
					<dim>13</dim>
				</port>
				<port id="1" precision="I64">
					<dim>4</dim>
				</port>
			</input>
			<output>
				<port id="2" precision="FP32" names="TFNodes/model_1/conv2d_10/BiasAdd:0,transpose_output1">
					<dim>1</dim>
					<dim>13</dim>
					<dim>13</dim>
					<dim>255</dim>
				</port>
			</output>
		</layer>
		<layer id="68" name="TFNodes/yolo_evaluation_layer_1/Reshape_3/shape_Unsqueeze__127" type="Const" version="opset1">
			<data element_type="i32" shape="1" offset="31463072" size="4" />
			<output>
				<port id="0" precision="I32" names="TFNodes/yolo_evaluation_layer_1/Reshape_3/shape_Unsqueeze__127:0">
					<dim>1</dim>
				</port>
			</output>
		</layer>
		<layer id="69" name="TFNodes/yolo_evaluation_layer_1/Shape_1" type="ShapeOf" version="opset3">
			<data output_type="i64" />
			<input>
				<port id="0" precision="FP32">
					<dim>1</dim>
					<dim>13</dim>
					<dim>13</dim>
					<dim>255</dim>
				</port>
			</input>
			<output>
				<port id="1" precision="I64" names="TFNodes/yolo_evaluation_layer_1/Shape:0,TFNodes/yolo_evaluation_layer_1/Shape_1:0">
					<dim>4</dim>
				</port>
			</output>
		</layer>
		<layer id="70" name="TFNodes/yolo_evaluation_layer_1/Shape_1__108" type="Convert" version="opset1">
			<data destination_type="i32" />
			<input>
				<port id="0" precision="I64">
					<dim>4</dim>
				</port>
			</input>
			<output>
				<port id="1" precision="I32" names="TFNodes/yolo_evaluation_layer_1/Shape_1__108:0">
					<dim>4</dim>
				</port>
			</output>
		</layer>
		<layer id="71" name="TFNodes/yolo_evaluation_layer_1/strided_slice_1__109" type="Const" version="opset1">
			<data element_type="i64" shape="1" offset="31463076" size="8" />
			<output>
				<port id="0" precision="I64" names="TFNodes/yolo_evaluation_layer_1/strided_slice_1__109:0">
					<dim>1</dim>
				</port>
			</output>
		</layer>
		<layer id="72" name="TFNodes/yolo_evaluation_layer_1/strided_slice_1__110" type="Const" version="opset1">
			<data element_type="i64" shape="1" offset="31463084" size="8" />
			<output>
				<port id="0" precision="I64" names="TFNodes/yolo_evaluation_layer_1/strided_slice_1__110:0">
					<dim>1</dim>
				</port>
			</output>
		</layer>
		<layer id="73" name="TFNodes/yolo_evaluation_layer_1/strided_slice_1__112" type="Const" version="opset1">
			<data element_type="i64" shape="1" offset="31463076" size="8" />
			<output>
				<port id="0" precision="I64" names="TFNodes/yolo_evaluation_layer_1/strided_slice_1__112">
					<dim>1</dim>
				</port>
			</output>
		</layer>
		<layer id="74" name="TFNodes/yolo_evaluation_layer_1/strided_slice_1" type="StridedSlice" version="opset1">
			<data begin_mask="0" end_mask="0" new_axis_mask="" shrink_axis_mask="" ellipsis_mask="" />
			<input>
				<port id="0" precision="I32">
					<dim>4</dim>
				</port>
				<port id="1" precision="I64">
					<dim>1</dim>
				</port>
				<port id="2" precision="I64">
					<dim>1</dim>
				</port>
				<port id="3" precision="I64">
					<dim>1</dim>
				</port>
			</input>
			<output>
				<port id="4" precision="I32" names="TFNodes/yolo_evaluation_layer_1/strided_slice_1:0">
					<dim>2</dim>
				</port>
			</output>
		</layer>
		<layer id="75" name="TFNodes/yolo_evaluation_layer_1/strided_slice_6__122" type="Const" version="opset1">
			<data element_type="i64" shape="1" offset="31463092" size="8" />
			<output>
				<port id="0" precision="I64" names="TFNodes/yolo_evaluation_layer_1/strided_slice_6__122">
					<dim>1</dim>
				</port>
			</output>
		</layer>
		<layer id="76" name="TFNodes/yolo_evaluation_layer_1/strided_slice_6__123" type="Const" version="opset1">
			<data element_type="i64" shape="1" offset="31463076" size="8" />
			<output>
				<port id="0" precision="I64" names="TFNodes/yolo_evaluation_layer_1/strided_slice_6__123">
					<dim>1</dim>
				</port>
			</output>
		</layer>
		<layer id="77" name="TFNodes/yolo_evaluation_layer_1/strided_slice_6__125" type="Const" version="opset1">
			<data element_type="i64" shape="1" offset="31463076" size="8" />
			<output>
				<port id="0" precision="I64" names="TFNodes/yolo_evaluation_layer_1/strided_slice_6__125">
					<dim>1</dim>
				</port>
			</output>
		</layer>
		<layer id="78" name="TFNodes/yolo_evaluation_layer_1/strided_slice_6" type="StridedSlice" version="opset1">
			<data begin_mask="0" end_mask="0" new_axis_mask="" shrink_axis_mask="" ellipsis_mask="" />
			<input>
				<port id="0" precision="I32">
					<dim>2</dim>
				</port>
				<port id="1" precision="I64">
					<dim>1</dim>
				</port>
				<port id="2" precision="I64">
					<dim>1</dim>
				</port>
				<port id="3" precision="I64">
					<dim>1</dim>
				</port>
			</input>
			<output>
				<port id="4" precision="I32" names="TFNodes/yolo_evaluation_layer_1/strided_slice_6:0">
					<dim>1</dim>
				</port>
			</output>
		</layer>
		<layer id="79" name="Constant_1150" type="Const" version="opset1">
			<data element_type="u64" shape="1" offset="31463092" size="8" />
			<output>
				<port id="0" precision="U64">
					<dim>1</dim>
				</port>
			</output>
		</layer>
		<layer id="80" name="TFNodes/yolo_evaluation_layer_1/strided_slice_6__126" type="Squeeze" version="opset1">
			<input>
				<port id="0" precision="I32">
					<dim>1</dim>
				</port>
				<port id="1" precision="U64">
					<dim>1</dim>
				</port>
			</input>
			<output>
				<port id="2" precision="I32" names="TFNodes/yolo_evaluation_layer_1/strided_slice_6__126:0" />
			</output>
		</layer>
		<layer id="81" name="Constant_1152" type="Const" version="opset1">
			<data element_type="i64" shape="1" offset="31463092" size="8" />
			<output>
				<port id="0" precision="I64">
					<dim>1</dim>
				</port>
			</output>
		</layer>
		<layer id="82" name="TFNodes/yolo_evaluation_layer_1/Reshape_3/shape_Unsqueeze__128" type="Unsqueeze" version="opset1">
			<input>
				<port id="0" precision="I32" />
				<port id="1" precision="I64">
					<dim>1</dim>
				</port>
			</input>
			<output>
				<port id="2" precision="I32" names="TFNodes/yolo_evaluation_layer_1/Reshape_3/shape_Unsqueeze__128:0">
					<dim>1</dim>
				</port>
			</output>
		</layer>
		<layer id="83" name="TFNodes/yolo_evaluation_layer_1/strided_slice_7__117" type="Const" version="opset1">
			<data element_type="i64" shape="1" offset="31463076" size="8" />
			<output>
				<port id="0" precision="I64" names="TFNodes/yolo_evaluation_layer_1/strided_slice_7__117">
					<dim>1</dim>
				</port>
			</output>
		</layer>
		<layer id="84" name="TFNodes/yolo_evaluation_layer_1/strided_slice_7__118" type="Const" version="opset1">
			<data element_type="i64" shape="1" offset="31463100" size="8" />
			<output>
				<port id="0" precision="I64" names="TFNodes/yolo_evaluation_layer_1/strided_slice_7__118">
					<dim>1</dim>
				</port>
			</output>
		</layer>
		<layer id="85" name="TFNodes/yolo_evaluation_layer_1/strided_slice_7__120" type="Const" version="opset1">
			<data element_type="i64" shape="1" offset="31463076" size="8" />
			<output>
				<port id="0" precision="I64" names="TFNodes/yolo_evaluation_layer_1/strided_slice_7__120">
					<dim>1</dim>
				</port>
			</output>
		</layer>
		<layer id="86" name="TFNodes/yolo_evaluation_layer_1/strided_slice_7" type="StridedSlice" version="opset1">
			<data begin_mask="0" end_mask="0" new_axis_mask="" shrink_axis_mask="" ellipsis_mask="" />
			<input>
				<port id="0" precision="I32">
					<dim>2</dim>
				</port>
				<port id="1" precision="I64">
					<dim>1</dim>
				</port>
				<port id="2" precision="I64">
					<dim>1</dim>
				</port>
				<port id="3" precision="I64">
					<dim>1</dim>
				</port>
			</input>
			<output>
				<port id="4" precision="I32" names="TFNodes/yolo_evaluation_layer_1/strided_slice_7:0">
					<dim>1</dim>
				</port>
			</output>
		</layer>
		<layer id="87" name="Constant_1155" type="Const" version="opset1">
			<data element_type="u64" shape="1" offset="31463092" size="8" />
			<output>
				<port id="0" precision="U64">
					<dim>1</dim>
				</port>
			</output>
		</layer>
		<layer id="88" name="TFNodes/yolo_evaluation_layer_1/strided_slice_7__121" type="Squeeze" version="opset1">
			<input>
				<port id="0" precision="I32">
					<dim>1</dim>
				</port>
				<port id="1" precision="U64">
					<dim>1</dim>
				</port>
			</input>
			<output>
				<port id="2" precision="I32" names="TFNodes/yolo_evaluation_layer_1/strided_slice_7__121:0" />
			</output>
		</layer>
		<layer id="89" name="Constant_1157" type="Const" version="opset1">
			<data element_type="i64" shape="1" offset="31463092" size="8" />
			<output>
				<port id="0" precision="I64">
					<dim>1</dim>
				</port>
			</output>
		</layer>
		<layer id="90" name="TFNodes/yolo_evaluation_layer_1/Reshape_3/shape_Unsqueeze__129" type="Unsqueeze" version="opset1">
			<input>
				<port id="0" precision="I32" />
				<port id="1" precision="I64">
					<dim>1</dim>
				</port>
			</input>
			<output>
				<port id="2" precision="I32" names="TFNodes/yolo_evaluation_layer_1/Reshape_3/shape_Unsqueeze__129:0">
					<dim>1</dim>
				</port>
			</output>
		</layer>
		<layer id="91" name="TFNodes/yolo_evaluation_layer_1/Reshape_3/shape_Unsqueeze__130" type="Const" version="opset1">
			<data element_type="i32" shape="1" offset="31463108" size="4" />
			<output>
				<port id="0" precision="I32" names="TFNodes/yolo_evaluation_layer_1/Reshape_3/shape_Unsqueeze__130:0">
					<dim>1</dim>
				</port>
			</output>
		</layer>
		<layer id="92" name="TFNodes/yolo_evaluation_layer_1/Reshape_3/shape_Unsqueeze__131" type="Const" version="opset1">
			<data element_type="i32" shape="1" offset="31463112" size="4" />
			<output>
				<port id="0" precision="I32" names="TFNodes/yolo_evaluation_layer_1/Reshape_3/shape_Unsqueeze__131:0">
					<dim>1</dim>
				</port>
			</output>
		</layer>
		<layer id="93" name="TFNodes/yolo_evaluation_layer_1/Reshape_3/shape_Concat__132" type="Concat" version="opset1">
			<data axis="0" />
			<input>
				<port id="0" precision="I32">
					<dim>1</dim>
				</port>
				<port id="1" precision="I32">
					<dim>1</dim>
				</port>
				<port id="2" precision="I32">
					<dim>1</dim>
				</port>
				<port id="3" precision="I32">
					<dim>1</dim>
				</port>
				<port id="4" precision="I32">
					<dim>1</dim>
				</port>
			</input>
			<output>
				<port id="5" precision="I32" names="TFNodes/yolo_evaluation_layer_1/Reshape_3/shape_Concat__132:0">
					<dim>5</dim>
				</port>
			</output>
		</layer>
		<layer id="94" name="TFNodes/yolo_evaluation_layer_1/Reshape_3__200" type="Convert" version="opset1">
			<data destination_type="i64" />
			<input>
				<port id="0" precision="I32">
					<dim>5</dim>
				</port>
			</input>
			<output>
				<port id="1" precision="I64" names="TFNodes/yolo_evaluation_layer_1/Reshape_3__200:0">
					<dim>5</dim>
				</port>
			</output>
		</layer>
		<layer id="95" name="TFNodes/yolo_evaluation_layer_1/Reshape_3" type="Reshape" version="opset1">
			<data special_zero="true" />
			<input>
				<port id="0" precision="FP32">
					<dim>1</dim>
					<dim>13</dim>
					<dim>13</dim>
					<dim>255</dim>
				</port>
				<port id="1" precision="I64">
					<dim>5</dim>
				</port>
			</input>
			<output>
				<port id="2" precision="FP32" names="TFNodes/yolo_evaluation_layer_1/Reshape_3:0">
					<dim>1</dim>
					<dim>13</dim>
					<dim>13</dim>
					<dim>3</dim>
					<dim>85</dim>
				</port>
			</output>
		</layer>
		<layer id="96" name="Constant_14003" type="Const" version="opset1">
			<data element_type="i64" shape="5" offset="31463116" size="40" />
			<output>
				<port id="0" precision="I64">
					<dim>5</dim>
				</port>
			</output>
		</layer>
		<layer id="97" name="Constant_14006" type="Const" version="opset1">
			<data element_type="i64" shape="5" offset="31463156" size="40" />
			<output>
				<port id="0" precision="I64">
					<dim>5</dim>
				</port>
			</output>
		</layer>
		<layer id="98" name="Constant_14009" type="Const" version="opset1">
			<data element_type="i64" shape="5" offset="31463196" size="40" />
			<output>
				<port id="0" precision="I64">
					<dim>5</dim>
				</port>
			</output>
		</layer>
		<layer id="99" name="TFNodes/yolo_evaluation_layer_1/strided_slice_8" type="StridedSlice" version="opset1">
			<data begin_mask="1, 1, 1, 1, 0" end_mask="1, 1, 1, 1, 0" new_axis_mask="" shrink_axis_mask="" ellipsis_mask="" />
			<input>
				<port id="0" precision="FP32">
					<dim>1</dim>
					<dim>13</dim>
					<dim>13</dim>
					<dim>3</dim>
					<dim>85</dim>
				</port>
				<port id="1" precision="I64">
					<dim>5</dim>
				</port>
				<port id="2" precision="I64">
					<dim>5</dim>
				</port>
				<port id="3" precision="I64">
					<dim>5</dim>
				</port>
			</input>
			<output>
				<port id="4" precision="FP32" names="TFNodes/yolo_evaluation_layer_1/strided_slice_8:0">
					<dim>1</dim>
					<dim>13</dim>
					<dim>13</dim>
					<dim>3</dim>
					<dim>2</dim>
				</port>
			</output>
		</layer>
		<layer id="100" name="TFNodes/yolo_evaluation_layer_1/Sigmoid" type="Sigmoid" version="opset1">
			<input>
				<port id="0" precision="FP32">
					<dim>1</dim>
					<dim>13</dim>
					<dim>13</dim>
					<dim>3</dim>
					<dim>2</dim>
				</port>
			</input>
			<output>
				<port id="1" precision="FP32" names="TFNodes/yolo_evaluation_layer_1/Sigmoid:0">
					<dim>1</dim>
					<dim>13</dim>
					<dim>13</dim>
					<dim>3</dim>
					<dim>2</dim>
				</port>
			</output>
		</layer>
		<layer id="101" name="TFNodes/yolo_evaluation_layer_1/strided_slice_4__143" type="Const" version="opset1">
			<data element_type="i64" shape="1" offset="31463076" size="8" />
			<output>
				<port id="0" precision="I64" names="TFNodes/yolo_evaluation_layer_1/strided_slice_4__143">
					<dim>1</dim>
				</port>
			</output>
		</layer>
		<layer id="102" name="TFNodes/yolo_evaluation_layer_1/strided_slice_4__144" type="Const" version="opset1">
			<data element_type="i64" shape="1" offset="31463100" size="8" />
			<output>
				<port id="0" precision="I64" names="TFNodes/yolo_evaluation_layer_1/strided_slice_4__144">
					<dim>1</dim>
				</port>
			</output>
		</layer>
		<layer id="103" name="TFNodes/yolo_evaluation_layer_1/strided_slice_4__146" type="Const" version="opset1">
			<data element_type="i64" shape="1" offset="31463076" size="8" />
			<output>
				<port id="0" precision="I64" names="TFNodes/yolo_evaluation_layer_1/strided_slice_4__146">
					<dim>1</dim>
				</port>
			</output>
		</layer>
		<layer id="104" name="TFNodes/yolo_evaluation_layer_1/strided_slice_4" type="StridedSlice" version="opset1">
			<data begin_mask="0" end_mask="0" new_axis_mask="" shrink_axis_mask="" ellipsis_mask="" />
			<input>
				<port id="0" precision="I32">
					<dim>2</dim>
				</port>
				<port id="1" precision="I64">
					<dim>1</dim>
				</port>
				<port id="2" precision="I64">
					<dim>1</dim>
				</port>
				<port id="3" precision="I64">
					<dim>1</dim>
				</port>
			</input>
			<output>
				<port id="4" precision="I32" names="TFNodes/yolo_evaluation_layer_1/strided_slice_4:0">
					<dim>1</dim>
				</port>
			</output>
		</layer>
		<layer id="105" name="Constant_874" type="Const" version="opset1">
			<data element_type="u64" shape="1" offset="31463092" size="8" />
			<output>
				<port id="0" precision="U64">
					<dim>1</dim>
				</port>
			</output>
		</layer>
		<layer id="106" name="TFNodes/yolo_evaluation_layer_1/strided_slice_4__147" type="Squeeze" version="opset1">
			<input>
				<port id="0" precision="I32">
					<dim>1</dim>
				</port>
				<port id="1" precision="U64">
					<dim>1</dim>
				</port>
			</input>
			<output>
				<port id="2" precision="I32" names="TFNodes/yolo_evaluation_layer_1/arange_1__148_diff__149:0,TFNodes/yolo_evaluation_layer_1/strided_slice_4__147:0" />
			</output>
		</layer>
		<layer id="107" name="TFNodes/yolo_evaluation_layer_1/arange_1__148_cast_diff" type="Convert" version="opset1">
			<data destination_type="f32" />
			<input>
				<port id="0" precision="I32" />
			</input>
			<output>
				<port id="1" precision="FP32" names="TFNodes/yolo_evaluation_layer_1/arange_1__148_cast_diff:0,TFNodes/yolo_evaluation_layer_1/arange_1__148_div:0" />
			</output>
		</layer>
		<layer id="108" name="TFNodes/yolo_evaluation_layer_1/arange_1__148_ceil" type="Ceiling" version="opset1">
			<input>
				<port id="0" precision="FP32" />
			</input>
			<output>
				<port id="1" precision="FP32" names="TFNodes/yolo_evaluation_layer_1/arange_1__148_ceil:0" />
			</output>
		</layer>
		<layer id="109" name="TFNodes/yolo_evaluation_layer_1/arange_1__148_trip_cnt" type="Convert" version="opset1">
			<data destination_type="i64" />
			<input>
				<port id="0" precision="FP32" />
			</input>
			<output>
				<port id="1" precision="I64" names="TFNodes/yolo_evaluation_layer_1/arange_1__148_trip_cnt:0" />
			</output>
		</layer>
		<layer id="110" name="TFNodes/yolo_evaluation_layer_1/arange_1__148_cond" type="Const" version="opset1">
			<data element_type="boolean" shape="" offset="31463236" size="1" />
			<output>
				<port id="0" precision="BOOL" names="TFNodes/yolo_evaluation_layer_1/arange_1__148_cond" />
			</output>
		</layer>
		<layer id="111" name="TFNodes/yolo_evaluation_layer_1/arange_1/start:0" type="Const" version="opset1">
			<data element_type="i32" shape="" offset="31463237" size="4" />
			<output>
				<port id="0" precision="I32" names="TFNodes/yolo_evaluation_layer_1/arange_1/start:0" />
			</output>
		</layer>
		<layer id="112" name="TFNodes/yolo_evaluation_layer_1/arange_1__148_loop" type="Loop" version="opset5">
			<port_map>
				<input external_port_id="2" internal_layer_id="0" />
				<output external_port_id="3" internal_layer_id="7" />
				<output axis="0" external_port_id="4" internal_layer_id="4" start="0" end="-1" stride="1" part_size="1" />
				<input external_port_id="-1" internal_layer_id="1" purpose="current_iteration" />
				<output external_port_id="-1" internal_layer_id="9" purpose="execution_condition" />
			</port_map>
			<back_edges>
				<edge from-layer="7" to-layer="0" />
			</back_edges>
			<input>
				<port id="0" precision="I64" />
				<port id="1" precision="BOOL" />
				<port id="2" precision="I32" />
			</input>
			<output>
				<port id="3" precision="I32" names="TFNodes/yolo_evaluation_layer_1/arange_1__148_loop:0" />
				<port id="4" precision="I32" names="TFNodes/yolo_evaluation_layer_1/arange_1__148_loop:1">
					<dim>13</dim>
				</port>
			</output>
			<body>
				<layers>
					<layer id="1" name="i" type="Parameter" version="opset1">
						<data shape="" element_type="i64" />
						<rt_info>
							<attribute name="fused_names" version="0" value="i" />
						</rt_info>
						<output>
							<port id="0" precision="I64" names="i" />
						</output>
					</layer>
					<layer id="0" name="range" type="Parameter" version="opset1">
						<data shape="" element_type="i32" />
						<rt_info>
							<attribute name="fused_names" version="0" value="range" />
						</rt_info>
						<output>
							<port id="0" precision="I32" names="prev,range" />
						</output>
					</layer>
					<layer id="2" name="Constant_888" type="Const" version="opset1">
						<data element_type="i64" shape="1" offset="31463092" size="8" />
						<rt_info>
							<attribute name="fused_names" version="0" value="Constant_888" />
						</rt_info>
						<output>
							<port id="0" precision="I64">
								<dim>1</dim>
							</port>
						</output>
					</layer>
					<layer id="3" name="Unsqueeze_889" type="Unsqueeze" version="opset1">
						<rt_info>
							<attribute name="fused_names" version="0" value="Unsqueeze_889" />
						</rt_info>
						<input>
							<port id="0" precision="I32" />
							<port id="1" precision="I64">
								<dim>1</dim>
							</port>
						</input>
						<output>
							<port id="2" precision="I32">
								<dim>1</dim>
							</port>
						</output>
					</layer>
					<layer id="5" name="TFNodes/yolo_evaluation_layer_1/arange_1/delta:0" type="Const" version="opset1">
						<data element_type="i32" shape="" offset="31463241" size="4" />
						<rt_info>
							<attribute name="fused_names" version="0" value="TFNodes/yolo_evaluation_layer_1/arange_1/delta:0" />
						</rt_info>
						<output>
							<port id="0" precision="I32" names="TFNodes/yolo_evaluation_layer_1/arange_1/delta:0" />
						</output>
					</layer>
					<layer id="6" name="current" type="Add" version="opset1">
						<data auto_broadcast="numpy" />
						<rt_info>
							<attribute name="fused_names" version="0" value="TFNodes/yolo_evaluation_layer_1/arange_1/delta:0, current" />
						</rt_info>
						<input>
							<port id="0" precision="I32" />
							<port id="1" precision="I32" />
						</input>
						<output>
							<port id="2" precision="I32" names="current" />
						</output>
					</layer>
					<layer id="8" name="Constant_890" type="Const" version="opset1">
						<data element_type="boolean" shape="1" offset="31463236" size="1" />
						<rt_info>
							<attribute name="fused_names" version="0" value="Constant_890" />
						</rt_info>
						<output>
							<port id="0" precision="BOOL">
								<dim>1</dim>
							</port>
						</output>
					</layer>
					<layer id="9" name="Result_891" type="Result" version="opset1">
						<rt_info>
							<attribute name="fused_names" version="0" value="Result_891" />
						</rt_info>
						<input>
							<port id="0" precision="BOOL">
								<dim>1</dim>
							</port>
						</input>
					</layer>
					<layer id="7" name="Result_892" type="Result" version="opset1">
						<rt_info>
							<attribute name="fused_names" version="0" value="Result_892" />
						</rt_info>
						<input>
							<port id="0" precision="I32" />
						</input>
					</layer>
					<layer id="4" name="Result_893" type="Result" version="opset1">
						<rt_info>
							<attribute name="fused_names" version="0" value="Result_893" />
						</rt_info>
						<input>
							<port id="0" precision="I32">
								<dim>1</dim>
							</port>
						</input>
					</layer>
				</layers>
				<edges>
					<edge from-layer="0" from-port="0" to-layer="3" to-port="0" />
					<edge from-layer="0" from-port="0" to-layer="6" to-port="0" />
					<edge from-layer="2" from-port="0" to-layer="3" to-port="1" />
					<edge from-layer="3" from-port="2" to-layer="4" to-port="0" />
					<edge from-layer="5" from-port="0" to-layer="6" to-port="1" />
					<edge from-layer="6" from-port="2" to-layer="7" to-port="0" />
					<edge from-layer="8" from-port="0" to-layer="9" to-port="0" />
				</edges>
				<rt_info />
			</body>
		</layer>
		<layer id="113" name="TFNodes/yolo_evaluation_layer_1/Reshape_2__156" type="Const" version="opset1">
			<data element_type="i64" shape="4" offset="31463245" size="32" />
			<output>
				<port id="0" precision="I64" names="TFNodes/yolo_evaluation_layer_1/Reshape_2__156:0">
					<dim>4</dim>
				</port>
			</output>
		</layer>
		<layer id="114" name="TFNodes/yolo_evaluation_layer_1/Reshape_2" type="Reshape" version="opset1">
			<data special_zero="true" />
			<input>
				<port id="0" precision="I32">
					<dim>13</dim>
				</port>
				<port id="1" precision="I64">
					<dim>4</dim>
				</port>
			</input>
			<output>
				<port id="2" precision="I32" names="TFNodes/yolo_evaluation_layer_1/Reshape_2:0">
					<dim>1</dim>
					<dim>13</dim>
					<dim>1</dim>
					<dim>1</dim>
				</port>
			</output>
		</layer>
		<layer id="115" name="TFNodes/yolo_evaluation_layer_1/strided_slice_5__133" type="Const" version="opset1">
			<data element_type="i64" shape="1" offset="31463092" size="8" />
			<output>
				<port id="0" precision="I64" names="TFNodes/yolo_evaluation_layer_1/strided_slice_5__133">
					<dim>1</dim>
				</port>
			</output>
		</layer>
		<layer id="116" name="TFNodes/yolo_evaluation_layer_1/strided_slice_5__134" type="Const" version="opset1">
			<data element_type="i64" shape="1" offset="31463076" size="8" />
			<output>
				<port id="0" precision="I64" names="TFNodes/yolo_evaluation_layer_1/strided_slice_5__134">
					<dim>1</dim>
				</port>
			</output>
		</layer>
		<layer id="117" name="TFNodes/yolo_evaluation_layer_1/strided_slice_5__136" type="Const" version="opset1">
			<data element_type="i64" shape="1" offset="31463076" size="8" />
			<output>
				<port id="0" precision="I64" names="TFNodes/yolo_evaluation_layer_1/strided_slice_5__136">
					<dim>1</dim>
				</port>
			</output>
		</layer>
		<layer id="118" name="TFNodes/yolo_evaluation_layer_1/strided_slice_5" type="StridedSlice" version="opset1">
			<data begin_mask="0" end_mask="0" new_axis_mask="" shrink_axis_mask="" ellipsis_mask="" />
			<input>
				<port id="0" precision="I32">
					<dim>2</dim>
				</port>
				<port id="1" precision="I64">
					<dim>1</dim>
				</port>
				<port id="2" precision="I64">
					<dim>1</dim>
				</port>
				<port id="3" precision="I64">
					<dim>1</dim>
				</port>
			</input>
			<output>
				<port id="4" precision="I32" names="TFNodes/yolo_evaluation_layer_1/strided_slice_5:0">
					<dim>1</dim>
				</port>
			</output>
		</layer>
		<layer id="119" name="Constant_1027" type="Const" version="opset1">
			<data element_type="u64" shape="1" offset="31463092" size="8" />
			<output>
				<port id="0" precision="U64">
					<dim>1</dim>
				</port>
			</output>
		</layer>
		<layer id="120" name="TFNodes/yolo_evaluation_layer_1/strided_slice_5__137" type="Squeeze" version="opset1">
			<input>
				<port id="0" precision="I32">
					<dim>1</dim>
				</port>
				<port id="1" precision="U64">
					<dim>1</dim>
				</port>
			</input>
			<output>
				<port id="2" precision="I32" names="TFNodes/yolo_evaluation_layer_1/strided_slice_5__137:0" />
			</output>
		</layer>
		<layer id="121" name="Constant_1029" type="Const" version="opset1">
			<data element_type="i64" shape="1" offset="31463092" size="8" />
			<output>
				<port id="0" precision="I64">
					<dim>1</dim>
				</port>
			</output>
		</layer>
		<layer id="122" name="TFNodes/yolo_evaluation_layer_1/Tile_1/multiples_Unsqueeze__138" type="Unsqueeze" version="opset1">
			<input>
				<port id="0" precision="I32" />
				<port id="1" precision="I64">
					<dim>1</dim>
				</port>
			</input>
			<output>
				<port id="2" precision="I32" names="TFNodes/yolo_evaluation_layer_1/Tile_1/multiples_Unsqueeze__138:0">
					<dim>1</dim>
				</port>
			</output>
		</layer>
		<layer id="123" name="TFNodes/yolo_evaluation_layer_1/Tile_1/multiples_Unsqueeze__139" type="Const" version="opset1">
			<data element_type="i32" shape="1" offset="31463241" size="4" />
			<output>
				<port id="0" precision="I32" names="TFNodes/yolo_evaluation_layer_1/Tile_1/multiples_Unsqueeze__139:0">
					<dim>1</dim>
				</port>
			</output>
		</layer>
		<layer id="124" name="TFNodes/yolo_evaluation_layer_1/Tile_1/multiples_Unsqueeze__140" type="Const" version="opset1">
			<data element_type="i32" shape="1" offset="31463241" size="4" />
			<output>
				<port id="0" precision="I32" names="TFNodes/yolo_evaluation_layer_1/Tile_1/multiples_Unsqueeze__140:0">
					<dim>1</dim>
				</port>
			</output>
		</layer>
		<layer id="125" name="TFNodes/yolo_evaluation_layer_1/Tile_1/multiples_Unsqueeze__141" type="Const" version="opset1">
			<data element_type="i32" shape="1" offset="31463241" size="4" />
			<output>
				<port id="0" precision="I32" names="TFNodes/yolo_evaluation_layer_1/Tile_1/multiples_Unsqueeze__141:0">
					<dim>1</dim>
				</port>
			</output>
		</layer>
		<layer id="126" name="TFNodes/yolo_evaluation_layer_1/Tile_1/multiples_Concat__142" type="Concat" version="opset1">
			<data axis="0" />
			<input>
				<port id="0" precision="I32">
					<dim>1</dim>
				</port>
				<port id="1" precision="I32">
					<dim>1</dim>
				</port>
				<port id="2" precision="I32">
					<dim>1</dim>
				</port>
				<port id="3" precision="I32">
					<dim>1</dim>
				</port>
			</input>
			<output>
				<port id="4" precision="I32" names="TFNodes/yolo_evaluation_layer_1/Tile_1/multiples_Concat__142:0">
					<dim>4</dim>
				</port>
			</output>
		</layer>
		<layer id="127" name="TFNodes/yolo_evaluation_layer_1/Tile_1__157" type="Convert" version="opset1">
			<data destination_type="i64" />
			<input>
				<port id="0" precision="I32">
					<dim>4</dim>
				</port>
			</input>
			<output>
				<port id="1" precision="I64" names="TFNodes/yolo_evaluation_layer_1/Tile_1__157:0">
					<dim>4</dim>
				</port>
			</output>
		</layer>
		<layer id="128" name="TFNodes/yolo_evaluation_layer_1/Tile_1" type="Tile" version="opset1">
			<input>
				<port id="0" precision="I32">
					<dim>1</dim>
					<dim>13</dim>
					<dim>1</dim>
					<dim>1</dim>
				</port>
				<port id="1" precision="I64">
					<dim>4</dim>
				</port>
			</input>
			<output>
				<port id="2" precision="I32" names="TFNodes/yolo_evaluation_layer_1/Tile_1:0">
					<dim>13</dim>
					<dim>13</dim>
					<dim>1</dim>
					<dim>1</dim>
				</port>
			</output>
		</layer>
		<layer id="129" name="TFNodes/yolo_evaluation_layer_1/strided_slice_2__168" type="Const" version="opset1">
			<data element_type="i64" shape="1" offset="31463092" size="8" />
			<output>
				<port id="0" precision="I64" names="TFNodes/yolo_evaluation_layer_1/strided_slice_2__168">
					<dim>1</dim>
				</port>
			</output>
		</layer>
		<layer id="130" name="TFNodes/yolo_evaluation_layer_1/strided_slice_2__169" type="Const" version="opset1">
			<data element_type="i64" shape="1" offset="31463076" size="8" />
			<output>
				<port id="0" precision="I64" names="TFNodes/yolo_evaluation_layer_1/strided_slice_2__169">
					<dim>1</dim>
				</port>
			</output>
		</layer>
		<layer id="131" name="TFNodes/yolo_evaluation_layer_1/strided_slice_2__171" type="Const" version="opset1">
			<data element_type="i64" shape="1" offset="31463076" size="8" />
			<output>
				<port id="0" precision="I64" names="TFNodes/yolo_evaluation_layer_1/strided_slice_2__171">
					<dim>1</dim>
				</port>
			</output>
		</layer>
		<layer id="132" name="TFNodes/yolo_evaluation_layer_1/strided_slice_2" type="StridedSlice" version="opset1">
			<data begin_mask="0" end_mask="0" new_axis_mask="" shrink_axis_mask="" ellipsis_mask="" />
			<input>
				<port id="0" precision="I32">
					<dim>2</dim>
				</port>
				<port id="1" precision="I64">
					<dim>1</dim>
				</port>
				<port id="2" precision="I64">
					<dim>1</dim>
				</port>
				<port id="3" precision="I64">
					<dim>1</dim>
				</port>
			</input>
			<output>
				<port id="4" precision="I32" names="TFNodes/yolo_evaluation_layer_1/strided_slice_2:0">
					<dim>1</dim>
				</port>
			</output>
		</layer>
		<layer id="133" name="Constant_600" type="Const" version="opset1">
			<data element_type="u64" shape="1" offset="31463092" size="8" />
			<output>
				<port id="0" precision="U64">
					<dim>1</dim>
				</port>
			</output>
		</layer>
		<layer id="134" name="TFNodes/yolo_evaluation_layer_1/strided_slice_2__172" type="Squeeze" version="opset1">
			<input>
				<port id="0" precision="I32">
					<dim>1</dim>
				</port>
				<port id="1" precision="U64">
					<dim>1</dim>
				</port>
			</input>
			<output>
				<port id="2" precision="I32" names="TFNodes/yolo_evaluation_layer_1/arange__173_diff__174:0,TFNodes/yolo_evaluation_layer_1/strided_slice_2__172:0" />
			</output>
		</layer>
		<layer id="135" name="TFNodes/yolo_evaluation_layer_1/arange__173_cast_diff" type="Convert" version="opset1">
			<data destination_type="f32" />
			<input>
				<port id="0" precision="I32" />
			</input>
			<output>
				<port id="1" precision="FP32" names="TFNodes/yolo_evaluation_layer_1/arange__173_cast_diff:0,TFNodes/yolo_evaluation_layer_1/arange__173_div:0" />
			</output>
		</layer>
		<layer id="136" name="TFNodes/yolo_evaluation_layer_1/arange__173_ceil" type="Ceiling" version="opset1">
			<input>
				<port id="0" precision="FP32" />
			</input>
			<output>
				<port id="1" precision="FP32" names="TFNodes/yolo_evaluation_layer_1/arange__173_ceil:0" />
			</output>
		</layer>
		<layer id="137" name="TFNodes/yolo_evaluation_layer_1/arange__173_trip_cnt" type="Convert" version="opset1">
			<data destination_type="i64" />
			<input>
				<port id="0" precision="FP32" />
			</input>
			<output>
				<port id="1" precision="I64" names="TFNodes/yolo_evaluation_layer_1/arange__173_trip_cnt:0" />
			</output>
		</layer>
		<layer id="138" name="TFNodes/yolo_evaluation_layer_1/arange__173_cond" type="Const" version="opset1">
			<data element_type="boolean" shape="" offset="31463236" size="1" />
			<output>
				<port id="0" precision="BOOL" names="TFNodes/yolo_evaluation_layer_1/arange__173_cond" />
			</output>
		</layer>
		<layer id="139" name="TFNodes/yolo_evaluation_layer_1/arange/start:0" type="Const" version="opset1">
			<data element_type="i32" shape="" offset="31463237" size="4" />
			<output>
				<port id="0" precision="I32" names="TFNodes/yolo_evaluation_layer_1/arange/start:0" />
			</output>
		</layer>
		<layer id="140" name="TFNodes/yolo_evaluation_layer_1/arange__173_loop" type="Loop" version="opset5">
			<port_map>
				<input external_port_id="2" internal_layer_id="0" />
				<output external_port_id="3" internal_layer_id="7" />
				<output axis="0" external_port_id="4" internal_layer_id="4" start="0" end="-1" stride="1" part_size="1" />
				<input external_port_id="-1" internal_layer_id="1" purpose="current_iteration" />
				<output external_port_id="-1" internal_layer_id="9" purpose="execution_condition" />
			</port_map>
			<back_edges>
				<edge from-layer="7" to-layer="0" />
			</back_edges>
			<input>
				<port id="0" precision="I64" />
				<port id="1" precision="BOOL" />
				<port id="2" precision="I32" />
			</input>
			<output>
				<port id="3" precision="I32" names="TFNodes/yolo_evaluation_layer_1/arange__173_loop:0" />
				<port id="4" precision="I32" names="TFNodes/yolo_evaluation_layer_1/arange__173_loop:1">
					<dim>13</dim>
				</port>
			</output>
			<body>
				<layers>
					<layer id="1" name="i" type="Parameter" version="opset1">
						<data shape="" element_type="i64" />
						<rt_info>
							<attribute name="fused_names" version="0" value="i" />
						</rt_info>
						<output>
							<port id="0" precision="I64" names="i" />
						</output>
					</layer>
					<layer id="0" name="range" type="Parameter" version="opset1">
						<data shape="" element_type="i32" />
						<rt_info>
							<attribute name="fused_names" version="0" value="range" />
						</rt_info>
						<output>
							<port id="0" precision="I32" names="prev,range" />
						</output>
					</layer>
					<layer id="2" name="Constant_614" type="Const" version="opset1">
						<data element_type="i64" shape="1" offset="31463092" size="8" />
						<rt_info>
							<attribute name="fused_names" version="0" value="Constant_614" />
						</rt_info>
						<output>
							<port id="0" precision="I64">
								<dim>1</dim>
							</port>
						</output>
					</layer>
					<layer id="3" name="Unsqueeze_615" type="Unsqueeze" version="opset1">
						<rt_info>
							<attribute name="fused_names" version="0" value="Unsqueeze_615" />
						</rt_info>
						<input>
							<port id="0" precision="I32" />
							<port id="1" precision="I64">
								<dim>1</dim>
							</port>
						</input>
						<output>
							<port id="2" precision="I32">
								<dim>1</dim>
							</port>
						</output>
					</layer>
					<layer id="5" name="TFNodes/yolo_evaluation_layer_1/arange/delta:0" type="Const" version="opset1">
						<data element_type="i32" shape="" offset="31463241" size="4" />
						<rt_info>
							<attribute name="fused_names" version="0" value="TFNodes/yolo_evaluation_layer_1/arange/delta:0" />
						</rt_info>
						<output>
							<port id="0" precision="I32" names="TFNodes/yolo_evaluation_layer_1/arange/delta:0" />
						</output>
					</layer>
					<layer id="6" name="current" type="Add" version="opset1">
						<data auto_broadcast="numpy" />
						<rt_info>
							<attribute name="fused_names" version="0" value="TFNodes/yolo_evaluation_layer_1/arange/delta:0, current" />
						</rt_info>
						<input>
							<port id="0" precision="I32" />
							<port id="1" precision="I32" />
						</input>
						<output>
							<port id="2" precision="I32" names="current" />
						</output>
					</layer>
					<layer id="8" name="Constant_616" type="Const" version="opset1">
						<data element_type="boolean" shape="1" offset="31463236" size="1" />
						<rt_info>
							<attribute name="fused_names" version="0" value="Constant_616" />
						</rt_info>
						<output>
							<port id="0" precision="BOOL">
								<dim>1</dim>
							</port>
						</output>
					</layer>
					<layer id="9" name="Result_617" type="Result" version="opset1">
						<rt_info>
							<attribute name="fused_names" version="0" value="Result_617" />
						</rt_info>
						<input>
							<port id="0" precision="BOOL">
								<dim>1</dim>
							</port>
						</input>
					</layer>
					<layer id="7" name="Result_618" type="Result" version="opset1">
						<rt_info>
							<attribute name="fused_names" version="0" value="Result_618" />
						</rt_info>
						<input>
							<port id="0" precision="I32" />
						</input>
					</layer>
					<layer id="4" name="Result_619" type="Result" version="opset1">
						<rt_info>
							<attribute name="fused_names" version="0" value="Result_619" />
						</rt_info>
						<input>
							<port id="0" precision="I32">
								<dim>1</dim>
							</port>
						</input>
					</layer>
				</layers>
				<edges>
					<edge from-layer="0" from-port="0" to-layer="3" to-port="0" />
					<edge from-layer="0" from-port="0" to-layer="6" to-port="0" />
					<edge from-layer="2" from-port="0" to-layer="3" to-port="1" />
					<edge from-layer="3" from-port="2" to-layer="4" to-port="0" />
					<edge from-layer="5" from-port="0" to-layer="6" to-port="1" />
					<edge from-layer="6" from-port="2" to-layer="7" to-port="0" />
					<edge from-layer="8" from-port="0" to-layer="9" to-port="0" />
				</edges>
				<rt_info />
			</body>
		</layer>
		<layer id="141" name="TFNodes/yolo_evaluation_layer_1/Reshape_1__181" type="Const" version="opset1">
			<data element_type="i64" shape="4" offset="31463277" size="32" />
			<output>
				<port id="0" precision="I64" names="TFNodes/yolo_evaluation_layer_1/Reshape_1__181:0">
					<dim>4</dim>
				</port>
			</output>
		</layer>
		<layer id="142" name="TFNodes/yolo_evaluation_layer_1/Reshape_1" type="Reshape" version="opset1">
			<data special_zero="true" />
			<input>
				<port id="0" precision="I32">
					<dim>13</dim>
				</port>
				<port id="1" precision="I64">
					<dim>4</dim>
				</port>
			</input>
			<output>
				<port id="2" precision="I32" names="TFNodes/yolo_evaluation_layer_1/Reshape_1:0">
					<dim>13</dim>
					<dim>1</dim>
					<dim>1</dim>
					<dim>1</dim>
				</port>
			</output>
		</layer>
		<layer id="143" name="TFNodes/yolo_evaluation_layer_1/Tile/multiples_Unsqueeze__163" type="Const" version="opset1">
			<data element_type="i32" shape="1" offset="31463241" size="4" />
			<output>
				<port id="0" precision="I32" names="TFNodes/yolo_evaluation_layer_1/Tile/multiples_Unsqueeze__163:0">
					<dim>1</dim>
				</port>
			</output>
		</layer>
		<layer id="144" name="TFNodes/yolo_evaluation_layer_1/strided_slice_3__158" type="Const" version="opset1">
			<data element_type="i64" shape="1" offset="31463076" size="8" />
			<output>
				<port id="0" precision="I64" names="TFNodes/yolo_evaluation_layer_1/strided_slice_3__158">
					<dim>1</dim>
				</port>
			</output>
		</layer>
		<layer id="145" name="TFNodes/yolo_evaluation_layer_1/strided_slice_3__159" type="Const" version="opset1">
			<data element_type="i64" shape="1" offset="31463100" size="8" />
			<output>
				<port id="0" precision="I64" names="TFNodes/yolo_evaluation_layer_1/strided_slice_3__159">
					<dim>1</dim>
				</port>
			</output>
		</layer>
		<layer id="146" name="TFNodes/yolo_evaluation_layer_1/strided_slice_3__161" type="Const" version="opset1">
			<data element_type="i64" shape="1" offset="31463076" size="8" />
			<output>
				<port id="0" precision="I64" names="TFNodes/yolo_evaluation_layer_1/strided_slice_3__161">
					<dim>1</dim>
				</port>
			</output>
		</layer>
		<layer id="147" name="TFNodes/yolo_evaluation_layer_1/strided_slice_3" type="StridedSlice" version="opset1">
			<data begin_mask="0" end_mask="0" new_axis_mask="" shrink_axis_mask="" ellipsis_mask="" />
			<input>
				<port id="0" precision="I32">
					<dim>2</dim>
				</port>
				<port id="1" precision="I64">
					<dim>1</dim>
				</port>
				<port id="2" precision="I64">
					<dim>1</dim>
				</port>
				<port id="3" precision="I64">
					<dim>1</dim>
				</port>
			</input>
			<output>
				<port id="4" precision="I32" names="TFNodes/yolo_evaluation_layer_1/strided_slice_3:0">
					<dim>1</dim>
				</port>
			</output>
		</layer>
		<layer id="148" name="Constant_753" type="Const" version="opset1">
			<data element_type="u64" shape="1" offset="31463092" size="8" />
			<output>
				<port id="0" precision="U64">
					<dim>1</dim>
				</port>
			</output>
		</layer>
		<layer id="149" name="TFNodes/yolo_evaluation_layer_1/strided_slice_3__162" type="Squeeze" version="opset1">
			<input>
				<port id="0" precision="I32">
					<dim>1</dim>
				</port>
				<port id="1" precision="U64">
					<dim>1</dim>
				</port>
			</input>
			<output>
				<port id="2" precision="I32" names="TFNodes/yolo_evaluation_layer_1/strided_slice_3__162:0" />
			</output>
		</layer>
		<layer id="150" name="Constant_755" type="Const" version="opset1">
			<data element_type="i64" shape="1" offset="31463092" size="8" />
			<output>
				<port id="0" precision="I64">
					<dim>1</dim>
				</port>
			</output>
		</layer>
		<layer id="151" name="TFNodes/yolo_evaluation_layer_1/Tile/multiples_Unsqueeze__164" type="Unsqueeze" version="opset1">
			<input>
				<port id="0" precision="I32" />
				<port id="1" precision="I64">
					<dim>1</dim>
				</port>
			</input>
			<output>
				<port id="2" precision="I32" names="TFNodes/yolo_evaluation_layer_1/Tile/multiples_Unsqueeze__164:0">
					<dim>1</dim>
				</port>
			</output>
		</layer>
		<layer id="152" name="TFNodes/yolo_evaluation_layer_1/Tile/multiples_Unsqueeze__165" type="Const" version="opset1">
			<data element_type="i32" shape="1" offset="31463241" size="4" />
			<output>
				<port id="0" precision="I32" names="TFNodes/yolo_evaluation_layer_1/Tile/multiples_Unsqueeze__165:0">
					<dim>1</dim>
				</port>
			</output>
		</layer>
		<layer id="153" name="TFNodes/yolo_evaluation_layer_1/Tile/multiples_Unsqueeze__166" type="Const" version="opset1">
			<data element_type="i32" shape="1" offset="31463241" size="4" />
			<output>
				<port id="0" precision="I32" names="TFNodes/yolo_evaluation_layer_1/Tile/multiples_Unsqueeze__166:0">
					<dim>1</dim>
				</port>
			</output>
		</layer>
		<layer id="154" name="TFNodes/yolo_evaluation_layer_1/Tile/multiples_Concat__167" type="Concat" version="opset1">
			<data axis="0" />
			<input>
				<port id="0" precision="I32">
					<dim>1</dim>
				</port>
				<port id="1" precision="I32">
					<dim>1</dim>
				</port>
				<port id="2" precision="I32">
					<dim>1</dim>
				</port>
				<port id="3" precision="I32">
					<dim>1</dim>
				</port>
			</input>
			<output>
				<port id="4" precision="I32" names="TFNodes/yolo_evaluation_layer_1/Tile/multiples_Concat__167:0">
					<dim>4</dim>
				</port>
			</output>
		</layer>
		<layer id="155" name="TFNodes/yolo_evaluation_layer_1/Tile__182" type="Convert" version="opset1">
			<data destination_type="i64" />
			<input>
				<port id="0" precision="I32">
					<dim>4</dim>
				</port>
			</input>
			<output>
				<port id="1" precision="I64" names="TFNodes/yolo_evaluation_layer_1/Tile__182:0">
					<dim>4</dim>
				</port>
			</output>
		</layer>
		<layer id="156" name="TFNodes/yolo_evaluation_layer_1/Tile" type="Tile" version="opset1">
			<input>
				<port id="0" precision="I32">
					<dim>13</dim>
					<dim>1</dim>
					<dim>1</dim>
					<dim>1</dim>
				</port>
				<port id="1" precision="I64">
					<dim>4</dim>
				</port>
			</input>
			<output>
				<port id="2" precision="I32" names="TFNodes/yolo_evaluation_layer_1/Tile:0">
					<dim>13</dim>
					<dim>13</dim>
					<dim>1</dim>
					<dim>1</dim>
				</port>
			</output>
		</layer>
		<layer id="157" name="TFNodes/yolo_evaluation_layer_1/concat" type="Concat" version="opset1">
			<data axis="3" />
			<input>
				<port id="0" precision="I32">
					<dim>13</dim>
					<dim>13</dim>
					<dim>1</dim>
					<dim>1</dim>
				</port>
				<port id="1" precision="I32">
					<dim>13</dim>
					<dim>13</dim>
					<dim>1</dim>
					<dim>1</dim>
				</port>
			</input>
			<output>
				<port id="2" precision="I32" names="TFNodes/yolo_evaluation_layer_1/concat:0">
					<dim>13</dim>
					<dim>13</dim>
					<dim>1</dim>
					<dim>2</dim>
				</port>
			</output>
		</layer>
		<layer id="158" name="TFNodes/yolo_evaluation_layer_1/Cast" type="Convert" version="opset1">
			<data destination_type="f32" />
			<input>
				<port id="0" precision="I32">
					<dim>13</dim>
					<dim>13</dim>
					<dim>1</dim>
					<dim>2</dim>
				</port>
			</input>
			<output>
				<port id="1" precision="FP32" names="TFNodes/yolo_evaluation_layer_1/Cast:0">
					<dim>13</dim>
					<dim>13</dim>
					<dim>1</dim>
					<dim>2</dim>
				</port>
			</output>
		</layer>
		<layer id="159" name="TFNodes/yolo_evaluation_layer_1/add" type="Add" version="opset1">
			<data auto_broadcast="numpy" />
			<input>
				<port id="0" precision="FP32">
					<dim>1</dim>
					<dim>13</dim>
					<dim>13</dim>
					<dim>3</dim>
					<dim>2</dim>
				</port>
				<port id="1" precision="FP32">
					<dim>13</dim>
					<dim>13</dim>
					<dim>1</dim>
					<dim>2</dim>
				</port>
			</input>
			<output>
				<port id="2" precision="FP32" names="TFNodes/yolo_evaluation_layer_1/add:0">
					<dim>1</dim>
					<dim>13</dim>
					<dim>13</dim>
					<dim>3</dim>
					<dim>2</dim>
				</port>
			</output>
		</layer>
		<layer id="160" name="TFNodes/yolo_evaluation_layer_1/strided_slice_9__113" type="Const" version="opset1">
			<data element_type="i64" shape="1" offset="31463309" size="8" />
			<output>
				<port id="0" precision="I64" names="TFNodes/yolo_evaluation_layer_1/strided_slice_9__113">
					<dim>1</dim>
				</port>
			</output>
		</layer>
		<layer id="161" name="TFNodes/yolo_evaluation_layer_1/strided_slice_9__114" type="Const" version="opset1">
			<data element_type="i64" shape="1" offset="31463317" size="8" />
			<output>
				<port id="0" precision="I64" names="TFNodes/yolo_evaluation_layer_1/strided_slice_9__114">
					<dim>1</dim>
				</port>
			</output>
		</layer>
		<layer id="162" name="TFNodes/yolo_evaluation_layer_1/strided_slice_9__116" type="Const" version="opset1">
			<data element_type="i64" shape="1" offset="31463309" size="8" />
			<output>
				<port id="0" precision="I64" names="TFNodes/yolo_evaluation_layer_1/strided_slice_9__116">
					<dim>1</dim>
				</port>
			</output>
		</layer>
		<layer id="163" name="TFNodes/yolo_evaluation_layer_1/strided_slice_9" type="StridedSlice" version="opset1">
			<data begin_mask="0" end_mask="0" new_axis_mask="" shrink_axis_mask="" ellipsis_mask="" />
			<input>
				<port id="0" precision="I32">
					<dim>2</dim>
				</port>
				<port id="1" precision="I64">
					<dim>1</dim>
				</port>
				<port id="2" precision="I64">
					<dim>1</dim>
				</port>
				<port id="3" precision="I64">
					<dim>1</dim>
				</port>
			</input>
			<output>
				<port id="4" precision="I32" names="TFNodes/yolo_evaluation_layer_1/strided_slice_9:0">
					<dim>2</dim>
				</port>
			</output>
		</layer>
		<layer id="164" name="TFNodes/yolo_evaluation_layer_1/Cast_1" type="Convert" version="opset1">
			<data destination_type="f32" />
			<input>
				<port id="0" precision="I32">
					<dim>2</dim>
				</port>
			</input>
			<output>
				<port id="1" precision="FP32" names="TFNodes/yolo_evaluation_layer_1/Cast_1:0">
					<dim>2</dim>
				</port>
			</output>
		</layer>
		<layer id="165" name="TFNodes/yolo_evaluation_layer_1/truediv" type="Divide" version="opset1">
			<data auto_broadcast="numpy" m_pythondiv="true" />
			<input>
				<port id="0" precision="FP32">
					<dim>1</dim>
					<dim>13</dim>
					<dim>13</dim>
					<dim>3</dim>
					<dim>2</dim>
				</port>
				<port id="1" precision="FP32">
					<dim>2</dim>
				</port>
			</input>
			<output>
				<port id="2" precision="FP32" names="TFNodes/yolo_evaluation_layer_1/truediv:0">
					<dim>1</dim>
					<dim>13</dim>
					<dim>13</dim>
					<dim>3</dim>
					<dim>2</dim>
				</port>
			</output>
		</layer>
		<layer id="166" name="Constant_14020" type="Const" version="opset1">
			<data element_type="i64" shape="5" offset="31463325" size="40" />
			<output>
				<port id="0" precision="I64">
					<dim>5</dim>
				</port>
			</output>
		</layer>
		<layer id="167" name="Constant_14023" type="Const" version="opset1">
			<data element_type="i64" shape="5" offset="31463365" size="40" />
			<output>
				<port id="0" precision="I64">
					<dim>5</dim>
				</port>
			</output>
		</layer>
		<layer id="168" name="Constant_14026" type="Const" version="opset1">
			<data element_type="i64" shape="5" offset="31463405" size="40" />
			<output>
				<port id="0" precision="I64">
					<dim>5</dim>
				</port>
			</output>
		</layer>
		<layer id="169" name="TFNodes/yolo_evaluation_layer_1/strided_slice_14" type="StridedSlice" version="opset1">
			<data begin_mask="1, 1, 1, 1, 0" end_mask="1, 1, 1, 1, 0" new_axis_mask="" shrink_axis_mask="" ellipsis_mask="" />
			<input>
				<port id="0" precision="FP32">
					<dim>1</dim>
					<dim>13</dim>
					<dim>13</dim>
					<dim>3</dim>
					<dim>2</dim>
				</port>
				<port id="1" precision="I64">
					<dim>5</dim>
				</port>
				<port id="2" precision="I64">
					<dim>5</dim>
				</port>
				<port id="3" precision="I64">
					<dim>5</dim>
				</port>
			</input>
			<output>
				<port id="4" precision="FP32" names="TFNodes/yolo_evaluation_layer_1/strided_slice_14:0">
					<dim>1</dim>
					<dim>13</dim>
					<dim>13</dim>
					<dim>3</dim>
					<dim>2</dim>
				</port>
			</output>
		</layer>
		<layer id="170" name="TFNodes/yolo_evaluation_layer_1/Shape__183" type="Convert" version="opset1">
			<data destination_type="i32" />
			<input>
				<port id="0" precision="I64">
					<dim>4</dim>
				</port>
			</input>
			<output>
				<port id="1" precision="I32" names="TFNodes/yolo_evaluation_layer_1/Shape__183:0">
					<dim>4</dim>
				</port>
			</output>
		</layer>
		<layer id="171" name="TFNodes/yolo_evaluation_layer_1/strided_slice__184" type="Const" version="opset1">
			<data element_type="i64" shape="1" offset="31463076" size="8" />
			<output>
				<port id="0" precision="I64" names="TFNodes/yolo_evaluation_layer_1/strided_slice__184:0">
					<dim>1</dim>
				</port>
			</output>
		</layer>
		<layer id="172" name="TFNodes/yolo_evaluation_layer_1/strided_slice__185" type="Const" version="opset1">
			<data element_type="i64" shape="1" offset="31463084" size="8" />
			<output>
				<port id="0" precision="I64" names="TFNodes/yolo_evaluation_layer_1/strided_slice__185:0">
					<dim>1</dim>
				</port>
			</output>
		</layer>
		<layer id="173" name="TFNodes/yolo_evaluation_layer_1/strided_slice__187" type="Const" version="opset1">
			<data element_type="i64" shape="1" offset="31463076" size="8" />
			<output>
				<port id="0" precision="I64" names="TFNodes/yolo_evaluation_layer_1/strided_slice__187">
					<dim>1</dim>
				</port>
			</output>
		</layer>
		<layer id="174" name="TFNodes/yolo_evaluation_layer_1/strided_slice" type="StridedSlice" version="opset1">
			<data begin_mask="0" end_mask="0" new_axis_mask="" shrink_axis_mask="" ellipsis_mask="" />
			<input>
				<port id="0" precision="I32">
					<dim>4</dim>
				</port>
				<port id="1" precision="I64">
					<dim>1</dim>
				</port>
				<port id="2" precision="I64">
					<dim>1</dim>
				</port>
				<port id="3" precision="I64">
					<dim>1</dim>
				</port>
			</input>
			<output>
				<port id="4" precision="I32" names="TFNodes/yolo_evaluation_layer_1/strided_slice:0">
					<dim>2</dim>
				</port>
			</output>
		</layer>
		<layer id="175" name="Constant_20066" type="Const" version="opset1">
			<data element_type="i32" shape="1" offset="31463445" size="4" />
			<output>
				<port id="0" precision="I32">
					<dim>1</dim>
				</port>
			</output>
		</layer>
		<layer id="176" name="TFNodes/yolo_evaluation_layer_1/mul" type="Multiply" version="opset1">
			<data auto_broadcast="numpy" />
			<input>
				<port id="0" precision="I32">
					<dim>2</dim>
				</port>
				<port id="1" precision="I32">
					<dim>1</dim>
				</port>
			</input>
			<output>
				<port id="2" precision="I32" names="TFNodes/yolo_evaluation_layer_1/mul:0">
					<dim>2</dim>
				</port>
			</output>
		</layer>
		<layer id="177" name="TFNodes/yolo_evaluation_layer_1/Cast_3" type="Convert" version="opset1">
			<data destination_type="f32" />
			<input>
				<port id="0" precision="I32">
					<dim>2</dim>
				</port>
			</input>
			<output>
				<port id="1" precision="FP32" names="TFNodes/yolo_evaluation_layer_1/Cast_3:0">
					<dim>2</dim>
				</port>
			</output>
		</layer>
		<layer id="178" name="Constant_438" type="Const" version="opset1">
			<data element_type="u64" shape="1" offset="31463092" size="8" />
			<output>
				<port id="0" precision="U64">
					<dim>1</dim>
				</port>
			</output>
		</layer>
		<layer id="179" name="TFNodes/yolo_evaluation_layer_1/Squeeze" type="Squeeze" version="opset1">
			<input>
				<port id="0" precision="FP32">
					<dim>1</dim>
					<dim>2</dim>
				</port>
				<port id="1" precision="U64">
					<dim>1</dim>
				</port>
			</input>
			<output>
				<port id="2" precision="FP32" names="TFNodes/yolo_evaluation_layer_1/Squeeze:0">
					<dim>2</dim>
				</port>
			</output>
		</layer>
		<layer id="180" name="TFNodes/yolo_evaluation_layer_1/truediv_2" type="Divide" version="opset1">
			<data auto_broadcast="numpy" m_pythondiv="true" />
			<input>
				<port id="0" precision="FP32">
					<dim>2</dim>
				</port>
				<port id="1" precision="FP32">
					<dim>2</dim>
				</port>
			</input>
			<output>
				<port id="2" precision="FP32" names="TFNodes/yolo_evaluation_layer_1/truediv_2:0">
					<dim>2</dim>
				</port>
			</output>
		</layer>
		<layer id="181" name="Constant_552" type="Const" version="opset1">
			<data element_type="i64" shape="1" offset="31463092" size="8" />
			<output>
				<port id="0" precision="I64">
					<dim>1</dim>
				</port>
			</output>
		</layer>
		<layer id="182" name="TFNodes/yolo_evaluation_layer_1/Min" type="ReduceMin" version="opset1">
			<data keep_dims="false" />
			<input>
				<port id="0" precision="FP32">
					<dim>2</dim>
				</port>
				<port id="1" precision="I64">
					<dim>1</dim>
				</port>
			</input>
			<output>
				<port id="2" precision="FP32" names="TFNodes/yolo_evaluation_layer_1/Min:0" />
			</output>
		</layer>
		<layer id="183" name="TFNodes/yolo_evaluation_layer_1/mul_2" type="Multiply" version="opset1">
			<data auto_broadcast="numpy" />
			<input>
				<port id="0" precision="FP32">
					<dim>2</dim>
				</port>
				<port id="1" precision="FP32" />
			</input>
			<output>
				<port id="2" precision="FP32" names="TFNodes/yolo_evaluation_layer_1/mul_2:0">
					<dim>2</dim>
				</port>
			</output>
		</layer>
		<layer id="184" name="TFNodes/yolo_evaluation_layer_1/Round" type="Round" version="opset5">
			<data mode="half_to_even" />
			<input>
				<port id="0" precision="FP32">
					<dim>2</dim>
				</port>
			</input>
			<output>
				<port id="1" precision="FP32" names="TFNodes/yolo_evaluation_layer_1/Round:0">
					<dim>2</dim>
				</port>
			</output>
		</layer>
		<layer id="185" name="TFNodes/yolo_evaluation_layer_1/sub" type="Subtract" version="opset1">
			<data auto_broadcast="numpy" />
			<input>
				<port id="0" precision="FP32">
					<dim>2</dim>
				</port>
				<port id="1" precision="FP32">
					<dim>2</dim>
				</port>
			</input>
			<output>
				<port id="2" precision="FP32" names="TFNodes/yolo_evaluation_layer_1/sub:0">
					<dim>2</dim>
				</port>
			</output>
		</layer>
		<layer id="186" name="Constant_20067" type="Const" version="opset1">
			<data element_type="f32" shape="1" offset="31463449" size="4" />
			<output>
				<port id="0" precision="FP32">
					<dim>1</dim>
				</port>
			</output>
		</layer>
		<layer id="187" name="TFNodes/yolo_evaluation_layer_1/truediv_3" type="Multiply" version="opset1">
			<data auto_broadcast="numpy" />
			<input>
				<port id="0" precision="FP32">
					<dim>2</dim>
				</port>
				<port id="1" precision="FP32">
					<dim>1</dim>
				</port>
			</input>
			<output>
				<port id="2" precision="FP32" names="TFNodes/yolo_evaluation_layer_1/truediv_3:0">
					<dim>2</dim>
				</port>
			</output>
		</layer>
		<layer id="188" name="TFNodes/yolo_evaluation_layer_1/truediv_4" type="Divide" version="opset1">
			<data auto_broadcast="numpy" m_pythondiv="true" />
			<input>
				<port id="0" precision="FP32">
					<dim>2</dim>
				</port>
				<port id="1" precision="FP32">
					<dim>2</dim>
				</port>
			</input>
			<output>
				<port id="2" precision="FP32" names="TFNodes/yolo_evaluation_layer_1/truediv_4:0">
					<dim>2</dim>
				</port>
			</output>
		</layer>
		<layer id="189" name="TFNodes/yolo_evaluation_layer_1/sub_1" type="Subtract" version="opset1">
			<data auto_broadcast="numpy" />
			<input>
				<port id="0" precision="FP32">
					<dim>1</dim>
					<dim>13</dim>
					<dim>13</dim>
					<dim>3</dim>
					<dim>2</dim>
				</port>
				<port id="1" precision="FP32">
					<dim>2</dim>
				</port>
			</input>
			<output>
				<port id="2" precision="FP32" names="TFNodes/yolo_evaluation_layer_1/sub_1:0">
					<dim>1</dim>
					<dim>13</dim>
					<dim>13</dim>
					<dim>3</dim>
					<dim>2</dim>
				</port>
			</output>
		</layer>
		<layer id="190" name="TFNodes/yolo_evaluation_layer_1/truediv_5" type="Divide" version="opset1">
			<data auto_broadcast="numpy" m_pythondiv="true" />
			<input>
				<port id="0" precision="FP32">
					<dim>2</dim>
				</port>
				<port id="1" precision="FP32">
					<dim>2</dim>
				</port>
			</input>
			<output>
				<port id="2" precision="FP32" names="TFNodes/yolo_evaluation_layer_1/truediv_5:0">
					<dim>2</dim>
				</port>
			</output>
		</layer>
		<layer id="191" name="TFNodes/yolo_evaluation_layer_1/mul_3" type="Multiply" version="opset1">
			<data auto_broadcast="numpy" />
			<input>
				<port id="0" precision="FP32">
					<dim>1</dim>
					<dim>13</dim>
					<dim>13</dim>
					<dim>3</dim>
					<dim>2</dim>
				</port>
				<port id="1" precision="FP32">
					<dim>2</dim>
				</port>
			</input>
			<output>
				<port id="2" precision="FP32" names="TFNodes/yolo_evaluation_layer_1/mul_3:0">
					<dim>1</dim>
					<dim>13</dim>
					<dim>13</dim>
					<dim>3</dim>
					<dim>2</dim>
				</port>
			</output>
		</layer>
		<layer id="192" name="Constant_14033" type="Const" version="opset1">
			<data element_type="i64" shape="5" offset="31463156" size="40" />
			<output>
				<port id="0" precision="I64">
					<dim>5</dim>
				</port>
			</output>
		</layer>
		<layer id="193" name="Constant_14036" type="Const" version="opset1">
			<data element_type="i64" shape="5" offset="31463453" size="40" />
			<output>
				<port id="0" precision="I64">
					<dim>5</dim>
				</port>
			</output>
		</layer>
		<layer id="194" name="Constant_14039" type="Const" version="opset1">
			<data element_type="i64" shape="5" offset="31463196" size="40" />
			<output>
				<port id="0" precision="I64">
					<dim>5</dim>
				</port>
			</output>
		</layer>
		<layer id="195" name="TFNodes/yolo_evaluation_layer_1/strided_slice_10" type="StridedSlice" version="opset1">
			<data begin_mask="1, 1, 1, 1, 0" end_mask="1, 1, 1, 1, 0" new_axis_mask="" shrink_axis_mask="" ellipsis_mask="" />
			<input>
				<port id="0" precision="FP32">
					<dim>1</dim>
					<dim>13</dim>
					<dim>13</dim>
					<dim>3</dim>
					<dim>85</dim>
				</port>
				<port id="1" precision="I64">
					<dim>5</dim>
				</port>
				<port id="2" precision="I64">
					<dim>5</dim>
				</port>
				<port id="3" precision="I64">
					<dim>5</dim>
				</port>
			</input>
			<output>
				<port id="4" precision="FP32" names="TFNodes/yolo_evaluation_layer_1/strided_slice_10:0">
					<dim>1</dim>
					<dim>13</dim>
					<dim>13</dim>
					<dim>3</dim>
					<dim>2</dim>
				</port>
			</output>
		</layer>
		<layer id="196" name="TFNodes/yolo_evaluation_layer_1/Exp" type="Exp" version="opset1">
			<input>
				<port id="0" precision="FP32">
					<dim>1</dim>
					<dim>13</dim>
					<dim>13</dim>
					<dim>3</dim>
					<dim>2</dim>
				</port>
			</input>
			<output>
				<port id="1" precision="FP32" names="TFNodes/yolo_evaluation_layer_1/Exp:0">
					<dim>1</dim>
					<dim>13</dim>
					<dim>13</dim>
					<dim>3</dim>
					<dim>2</dim>
				</port>
			</output>
		</layer>
		<layer id="197" name="TFNodes/yolo_evaluation_layer_1/Reshape" type="Const" version="opset1">
			<data element_type="f32" shape="1, 1, 1, 3, 2" offset="31463493" size="24" />
			<output>
				<port id="0" precision="FP32" names="TFNodes/yolo_evaluation_layer_1/Reshape:0">
					<dim>1</dim>
					<dim>1</dim>
					<dim>1</dim>
					<dim>3</dim>
					<dim>2</dim>
				</port>
			</output>
		</layer>
		<layer id="198" name="TFNodes/yolo_evaluation_layer_1/mul_1" type="Multiply" version="opset1">
			<data auto_broadcast="numpy" />
			<input>
				<port id="0" precision="FP32">
					<dim>1</dim>
					<dim>13</dim>
					<dim>13</dim>
					<dim>3</dim>
					<dim>2</dim>
				</port>
				<port id="1" precision="FP32">
					<dim>1</dim>
					<dim>1</dim>
					<dim>1</dim>
					<dim>3</dim>
					<dim>2</dim>
				</port>
			</input>
			<output>
				<port id="2" precision="FP32" names="TFNodes/yolo_evaluation_layer_1/mul_1:0">
					<dim>1</dim>
					<dim>13</dim>
					<dim>13</dim>
					<dim>3</dim>
					<dim>2</dim>
				</port>
			</output>
		</layer>
		<layer id="199" name="TFNodes/yolo_evaluation_layer_1/strided_slice_11__196" type="Const" version="opset1">
			<data element_type="i64" shape="1" offset="31463309" size="8" />
			<output>
				<port id="0" precision="I64" names="TFNodes/yolo_evaluation_layer_1/strided_slice_11__196">
					<dim>1</dim>
				</port>
			</output>
		</layer>
		<layer id="200" name="TFNodes/yolo_evaluation_layer_1/strided_slice_11__197" type="Const" version="opset1">
			<data element_type="i64" shape="1" offset="31463317" size="8" />
			<output>
				<port id="0" precision="I64" names="TFNodes/yolo_evaluation_layer_1/strided_slice_11__197">
					<dim>1</dim>
				</port>
			</output>
		</layer>
		<layer id="201" name="TFNodes/yolo_evaluation_layer_1/strided_slice_11__199" type="Const" version="opset1">
			<data element_type="i64" shape="1" offset="31463309" size="8" />
			<output>
				<port id="0" precision="I64" names="TFNodes/yolo_evaluation_layer_1/strided_slice_11__199">
					<dim>1</dim>
				</port>
			</output>
		</layer>
		<layer id="202" name="TFNodes/yolo_evaluation_layer_1/strided_slice_11" type="StridedSlice" version="opset1">
			<data begin_mask="0" end_mask="0" new_axis_mask="" shrink_axis_mask="" ellipsis_mask="" />
			<input>
				<port id="0" precision="I32">
					<dim>2</dim>
				</port>
				<port id="1" precision="I64">
					<dim>1</dim>
				</port>
				<port id="2" precision="I64">
					<dim>1</dim>
				</port>
				<port id="3" precision="I64">
					<dim>1</dim>
				</port>
			</input>
			<output>
				<port id="4" precision="I32" names="TFNodes/yolo_evaluation_layer_1/strided_slice_11:0">
					<dim>2</dim>
				</port>
			</output>
		</layer>
		<layer id="203" name="TFNodes/yolo_evaluation_layer_1/Cast_2" type="Convert" version="opset1">
			<data destination_type="f32" />
			<input>
				<port id="0" precision="I32">
					<dim>2</dim>
				</port>
			</input>
			<output>
				<port id="1" precision="FP32" names="TFNodes/yolo_evaluation_layer_1/Cast_2:0">
					<dim>2</dim>
				</port>
			</output>
		</layer>
		<layer id="204" name="TFNodes/yolo_evaluation_layer_1/truediv_1" type="Divide" version="opset1">
			<data auto_broadcast="numpy" m_pythondiv="true" />
			<input>
				<port id="0" precision="FP32">
					<dim>1</dim>
					<dim>13</dim>
					<dim>13</dim>
					<dim>3</dim>
					<dim>2</dim>
				</port>
				<port id="1" precision="FP32">
					<dim>2</dim>
				</port>
			</input>
			<output>
				<port id="2" precision="FP32" names="TFNodes/yolo_evaluation_layer_1/truediv_1:0">
					<dim>1</dim>
					<dim>13</dim>
					<dim>13</dim>
					<dim>3</dim>
					<dim>2</dim>
				</port>
			</output>
		</layer>
		<layer id="205" name="Constant_14046" type="Const" version="opset1">
			<data element_type="i64" shape="5" offset="31463325" size="40" />
			<output>
				<port id="0" precision="I64">
					<dim>5</dim>
				</port>
			</output>
		</layer>
		<layer id="206" name="Constant_14049" type="Const" version="opset1">
			<data element_type="i64" shape="5" offset="31463365" size="40" />
			<output>
				<port id="0" precision="I64">
					<dim>5</dim>
				</port>
			</output>
		</layer>
		<layer id="207" name="Constant_14052" type="Const" version="opset1">
			<data element_type="i64" shape="5" offset="31463405" size="40" />
			<output>
				<port id="0" precision="I64">
					<dim>5</dim>
				</port>
			</output>
		</layer>
		<layer id="208" name="TFNodes/yolo_evaluation_layer_1/strided_slice_15" type="StridedSlice" version="opset1">
			<data begin_mask="1, 1, 1, 1, 0" end_mask="1, 1, 1, 1, 0" new_axis_mask="" shrink_axis_mask="" ellipsis_mask="" />
			<input>
				<port id="0" precision="FP32">
					<dim>1</dim>
					<dim>13</dim>
					<dim>13</dim>
					<dim>3</dim>
					<dim>2</dim>
				</port>
				<port id="1" precision="I64">
					<dim>5</dim>
				</port>
				<port id="2" precision="I64">
					<dim>5</dim>
				</port>
				<port id="3" precision="I64">
					<dim>5</dim>
				</port>
			</input>
			<output>
				<port id="4" precision="FP32" names="TFNodes/yolo_evaluation_layer_1/strided_slice_15:0">
					<dim>1</dim>
					<dim>13</dim>
					<dim>13</dim>
					<dim>3</dim>
					<dim>2</dim>
				</port>
			</output>
		</layer>
		<layer id="209" name="TFNodes/yolo_evaluation_layer_1/mul_4" type="Multiply" version="opset1">
			<data auto_broadcast="numpy" />
			<input>
				<port id="0" precision="FP32">
					<dim>1</dim>
					<dim>13</dim>
					<dim>13</dim>
					<dim>3</dim>
					<dim>2</dim>
				</port>
				<port id="1" precision="FP32">
					<dim>2</dim>
				</port>
			</input>
			<output>
				<port id="2" precision="FP32" names="TFNodes/yolo_evaluation_layer_1/mul_4:0">
					<dim>1</dim>
					<dim>13</dim>
					<dim>13</dim>
					<dim>3</dim>
					<dim>2</dim>
				</port>
			</output>
		</layer>
		<layer id="210" name="Constant_20068" type="Const" version="opset1">
			<data element_type="f32" shape="1, 1, 1, 1, 1" offset="31463449" size="4" />
			<output>
				<port id="0" precision="FP32">
					<dim>1</dim>
					<dim>1</dim>
					<dim>1</dim>
					<dim>1</dim>
					<dim>1</dim>
				</port>
			</output>
		</layer>
		<layer id="211" name="TFNodes/yolo_evaluation_layer_1/truediv_6" type="Multiply" version="opset1">
			<data auto_broadcast="numpy" />
			<input>
				<port id="0" precision="FP32">
					<dim>1</dim>
					<dim>13</dim>
					<dim>13</dim>
					<dim>3</dim>
					<dim>2</dim>
				</port>
				<port id="1" precision="FP32">
					<dim>1</dim>
					<dim>1</dim>
					<dim>1</dim>
					<dim>1</dim>
					<dim>1</dim>
				</port>
			</input>
			<output>
				<port id="2" precision="FP32" names="TFNodes/yolo_evaluation_layer_1/truediv_6:0">
					<dim>1</dim>
					<dim>13</dim>
					<dim>13</dim>
					<dim>3</dim>
					<dim>2</dim>
				</port>
			</output>
		</layer>
		<layer id="212" name="TFNodes/yolo_evaluation_layer_1/sub_2" type="Subtract" version="opset1">
			<data auto_broadcast="numpy" />
			<input>
				<port id="0" precision="FP32">
					<dim>1</dim>
					<dim>13</dim>
					<dim>13</dim>
					<dim>3</dim>
					<dim>2</dim>
				</port>
				<port id="1" precision="FP32">
					<dim>1</dim>
					<dim>13</dim>
					<dim>13</dim>
					<dim>3</dim>
					<dim>2</dim>
				</port>
			</input>
			<output>
				<port id="2" precision="FP32" names="TFNodes/yolo_evaluation_layer_1/sub_2:0">
					<dim>1</dim>
					<dim>13</dim>
					<dim>13</dim>
					<dim>3</dim>
					<dim>2</dim>
				</port>
			</output>
		</layer>
		<layer id="213" name="Constant_14058" type="Const" version="opset1">
			<data element_type="i64" shape="5" offset="31463116" size="40" />
			<output>
				<port id="0" precision="I64">
					<dim>5</dim>
				</port>
			</output>
		</layer>
		<layer id="214" name="Constant_14061" type="Const" version="opset1">
			<data element_type="i64" shape="5" offset="31463517" size="40" />
			<output>
				<port id="0" precision="I64">
					<dim>5</dim>
				</port>
			</output>
		</layer>
		<layer id="215" name="Constant_14064" type="Const" version="opset1">
			<data element_type="i64" shape="5" offset="31463196" size="40" />
			<output>
				<port id="0" precision="I64">
					<dim>5</dim>
				</port>
			</output>
		</layer>
		<layer id="216" name="TFNodes/yolo_evaluation_layer_1/strided_slice_16" type="StridedSlice" version="opset1">
			<data begin_mask="1, 1, 1, 1, 0" end_mask="1, 1, 1, 1, 0" new_axis_mask="" shrink_axis_mask="" ellipsis_mask="" />
			<input>
				<port id="0" precision="FP32">
					<dim>1</dim>
					<dim>13</dim>
					<dim>13</dim>
					<dim>3</dim>
					<dim>2</dim>
				</port>
				<port id="1" precision="I64">
					<dim>5</dim>
				</port>
				<port id="2" precision="I64">
					<dim>5</dim>
				</port>
				<port id="3" precision="I64">
					<dim>5</dim>
				</port>
			</input>
			<output>
				<port id="4" precision="FP32" names="TFNodes/yolo_evaluation_layer_1/strided_slice_16:0">
					<dim>1</dim>
					<dim>13</dim>
					<dim>13</dim>
					<dim>3</dim>
					<dim>1</dim>
				</port>
			</output>
		</layer>
		<layer id="217" name="Constant_14070" type="Const" version="opset1">
			<data element_type="i64" shape="5" offset="31463517" size="40" />
			<output>
				<port id="0" precision="I64">
					<dim>5</dim>
				</port>
			</output>
		</layer>
		<layer id="218" name="Constant_14073" type="Const" version="opset1">
			<data element_type="i64" shape="5" offset="31463156" size="40" />
			<output>
				<port id="0" precision="I64">
					<dim>5</dim>
				</port>
			</output>
		</layer>
		<layer id="219" name="Constant_14076" type="Const" version="opset1">
			<data element_type="i64" shape="5" offset="31463196" size="40" />
			<output>
				<port id="0" precision="I64">
					<dim>5</dim>
				</port>
			</output>
		</layer>
		<layer id="220" name="TFNodes/yolo_evaluation_layer_1/strided_slice_17" type="StridedSlice" version="opset1">
			<data begin_mask="1, 1, 1, 1, 0" end_mask="1, 1, 1, 1, 0" new_axis_mask="" shrink_axis_mask="" ellipsis_mask="" />
			<input>
				<port id="0" precision="FP32">
					<dim>1</dim>
					<dim>13</dim>
					<dim>13</dim>
					<dim>3</dim>
					<dim>2</dim>
				</port>
				<port id="1" precision="I64">
					<dim>5</dim>
				</port>
				<port id="2" precision="I64">
					<dim>5</dim>
				</port>
				<port id="3" precision="I64">
					<dim>5</dim>
				</port>
			</input>
			<output>
				<port id="4" precision="FP32" names="TFNodes/yolo_evaluation_layer_1/strided_slice_17:0">
					<dim>1</dim>
					<dim>13</dim>
					<dim>13</dim>
					<dim>3</dim>
					<dim>1</dim>
				</port>
			</output>
		</layer>
		<layer id="221" name="Constant_20069" type="Const" version="opset1">
			<data element_type="f32" shape="1, 1, 1, 1, 1" offset="31463449" size="4" />
			<output>
				<port id="0" precision="FP32">
					<dim>1</dim>
					<dim>1</dim>
					<dim>1</dim>
					<dim>1</dim>
					<dim>1</dim>
				</port>
			</output>
		</layer>
		<layer id="222" name="TFNodes/yolo_evaluation_layer_1/truediv_7" type="Multiply" version="opset1">
			<data auto_broadcast="numpy" />
			<input>
				<port id="0" precision="FP32">
					<dim>1</dim>
					<dim>13</dim>
					<dim>13</dim>
					<dim>3</dim>
					<dim>2</dim>
				</port>
				<port id="1" precision="FP32">
					<dim>1</dim>
					<dim>1</dim>
					<dim>1</dim>
					<dim>1</dim>
					<dim>1</dim>
				</port>
			</input>
			<output>
				<port id="2" precision="FP32" names="TFNodes/yolo_evaluation_layer_1/truediv_7:0">
					<dim>1</dim>
					<dim>13</dim>
					<dim>13</dim>
					<dim>3</dim>
					<dim>2</dim>
				</port>
			</output>
		</layer>
		<layer id="223" name="TFNodes/yolo_evaluation_layer_1/add_1" type="Add" version="opset1">
			<data auto_broadcast="numpy" />
			<input>
				<port id="0" precision="FP32">
					<dim>1</dim>
					<dim>13</dim>
					<dim>13</dim>
					<dim>3</dim>
					<dim>2</dim>
				</port>
				<port id="1" precision="FP32">
					<dim>1</dim>
					<dim>13</dim>
					<dim>13</dim>
					<dim>3</dim>
					<dim>2</dim>
				</port>
			</input>
			<output>
				<port id="2" precision="FP32" names="TFNodes/yolo_evaluation_layer_1/add_1:0">
					<dim>1</dim>
					<dim>13</dim>
					<dim>13</dim>
					<dim>3</dim>
					<dim>2</dim>
				</port>
			</output>
		</layer>
		<layer id="224" name="Constant_14082" type="Const" version="opset1">
			<data element_type="i64" shape="5" offset="31463116" size="40" />
			<output>
				<port id="0" precision="I64">
					<dim>5</dim>
				</port>
			</output>
		</layer>
		<layer id="225" name="Constant_14085" type="Const" version="opset1">
			<data element_type="i64" shape="5" offset="31463517" size="40" />
			<output>
				<port id="0" precision="I64">
					<dim>5</dim>
				</port>
			</output>
		</layer>
		<layer id="226" name="Constant_14088" type="Const" version="opset1">
			<data element_type="i64" shape="5" offset="31463196" size="40" />
			<output>
				<port id="0" precision="I64">
					<dim>5</dim>
				</port>
			</output>
		</layer>
		<layer id="227" name="TFNodes/yolo_evaluation_layer_1/strided_slice_18" type="StridedSlice" version="opset1">
			<data begin_mask="1, 1, 1, 1, 0" end_mask="1, 1, 1, 1, 0" new_axis_mask="" shrink_axis_mask="" ellipsis_mask="" />
			<input>
				<port id="0" precision="FP32">
					<dim>1</dim>
					<dim>13</dim>
					<dim>13</dim>
					<dim>3</dim>
					<dim>2</dim>
				</port>
				<port id="1" precision="I64">
					<dim>5</dim>
				</port>
				<port id="2" precision="I64">
					<dim>5</dim>
				</port>
				<port id="3" precision="I64">
					<dim>5</dim>
				</port>
			</input>
			<output>
				<port id="4" precision="FP32" names="TFNodes/yolo_evaluation_layer_1/strided_slice_18:0">
					<dim>1</dim>
					<dim>13</dim>
					<dim>13</dim>
					<dim>3</dim>
					<dim>1</dim>
				</port>
			</output>
		</layer>
		<layer id="228" name="Constant_14094" type="Const" version="opset1">
			<data element_type="i64" shape="5" offset="31463517" size="40" />
			<output>
				<port id="0" precision="I64">
					<dim>5</dim>
				</port>
			</output>
		</layer>
		<layer id="229" name="Constant_14097" type="Const" version="opset1">
			<data element_type="i64" shape="5" offset="31463156" size="40" />
			<output>
				<port id="0" precision="I64">
					<dim>5</dim>
				</port>
			</output>
		</layer>
		<layer id="230" name="Constant_14100" type="Const" version="opset1">
			<data element_type="i64" shape="5" offset="31463196" size="40" />
			<output>
				<port id="0" precision="I64">
					<dim>5</dim>
				</port>
			</output>
		</layer>
		<layer id="231" name="TFNodes/yolo_evaluation_layer_1/strided_slice_19" type="StridedSlice" version="opset1">
			<data begin_mask="1, 1, 1, 1, 0" end_mask="1, 1, 1, 1, 0" new_axis_mask="" shrink_axis_mask="" ellipsis_mask="" />
			<input>
				<port id="0" precision="FP32">
					<dim>1</dim>
					<dim>13</dim>
					<dim>13</dim>
					<dim>3</dim>
					<dim>2</dim>
				</port>
				<port id="1" precision="I64">
					<dim>5</dim>
				</port>
				<port id="2" precision="I64">
					<dim>5</dim>
				</port>
				<port id="3" precision="I64">
					<dim>5</dim>
				</port>
			</input>
			<output>
				<port id="4" precision="FP32" names="TFNodes/yolo_evaluation_layer_1/strided_slice_19:0">
					<dim>1</dim>
					<dim>13</dim>
					<dim>13</dim>
					<dim>3</dim>
					<dim>1</dim>
				</port>
			</output>
		</layer>
		<layer id="232" name="TFNodes/yolo_evaluation_layer_1/concat_1" type="Concat" version="opset1">
			<data axis="4" />
			<input>
				<port id="0" precision="FP32">
					<dim>1</dim>
					<dim>13</dim>
					<dim>13</dim>
					<dim>3</dim>
					<dim>1</dim>
				</port>
				<port id="1" precision="FP32">
					<dim>1</dim>
					<dim>13</dim>
					<dim>13</dim>
					<dim>3</dim>
					<dim>1</dim>
				</port>
				<port id="2" precision="FP32">
					<dim>1</dim>
					<dim>13</dim>
					<dim>13</dim>
					<dim>3</dim>
					<dim>1</dim>
				</port>
				<port id="3" precision="FP32">
					<dim>1</dim>
					<dim>13</dim>
					<dim>13</dim>
					<dim>3</dim>
					<dim>1</dim>
				</port>
			</input>
			<output>
				<port id="4" precision="FP32" names="TFNodes/yolo_evaluation_layer_1/concat_1:0">
					<dim>1</dim>
					<dim>13</dim>
					<dim>13</dim>
					<dim>3</dim>
					<dim>4</dim>
				</port>
			</output>
		</layer>
		<layer id="233" name="TFNodes/yolo_evaluation_layer_1/concat_2" type="Concat" version="opset1">
			<data axis="0" />
			<input>
				<port id="0" precision="FP32">
					<dim>2</dim>
				</port>
				<port id="1" precision="FP32">
					<dim>2</dim>
				</port>
			</input>
			<output>
				<port id="2" precision="FP32" names="TFNodes/yolo_evaluation_layer_1/concat_2:0">
					<dim>4</dim>
				</port>
			</output>
		</layer>
		<layer id="234" name="TFNodes/yolo_evaluation_layer_1/mul_5" type="Multiply" version="opset1">
			<data auto_broadcast="numpy" />
			<input>
				<port id="0" precision="FP32">
					<dim>1</dim>
					<dim>13</dim>
					<dim>13</dim>
					<dim>3</dim>
					<dim>4</dim>
				</port>
				<port id="1" precision="FP32">
					<dim>4</dim>
				</port>
			</input>
			<output>
				<port id="2" precision="FP32" names="TFNodes/yolo_evaluation_layer_1/mul_5:0">
					<dim>1</dim>
					<dim>13</dim>
					<dim>13</dim>
					<dim>3</dim>
					<dim>4</dim>
				</port>
			</output>
		</layer>
		<layer id="235" name="TFNodes/yolo_evaluation_layer_1/Reshape_4__259" type="Const" version="opset1">
			<data element_type="i64" shape="2" offset="31463557" size="16" />
			<output>
				<port id="0" precision="I64" names="TFNodes/yolo_evaluation_layer_1/Reshape_4__259:0">
					<dim>2</dim>
				</port>
			</output>
		</layer>
		<layer id="236" name="TFNodes/yolo_evaluation_layer_1/Reshape_4" type="Reshape" version="opset1">
			<data special_zero="true" />
			<input>
				<port id="0" precision="FP32">
					<dim>1</dim>
					<dim>13</dim>
					<dim>13</dim>
					<dim>3</dim>
					<dim>4</dim>
				</port>
				<port id="1" precision="I64">
					<dim>2</dim>
				</port>
			</input>
			<output>
				<port id="2" precision="FP32" names="TFNodes/yolo_evaluation_layer_1/Reshape_4:0">
					<dim>507</dim>
					<dim>4</dim>
				</port>
			</output>
		</layer>
		<layer id="237" name="Multiply_18843" type="Const" version="opset1">
			<data element_type="f32" shape="128, 256, 1, 1" offset="31463573" size="131072" />
			<output>
				<port id="0" precision="FP32">
					<dim>128</dim>
					<dim>256</dim>
					<dim>1</dim>
					<dim>1</dim>
				</port>
			</output>
		</layer>
		<layer id="238" name="Multiply_18735" type="Convolution" version="opset1">
			<data strides="1, 1" dilations="1, 1" pads_begin="0, 0" pads_end="0, 0" auto_pad="same_upper" />
			<input>
				<port id="0" precision="FP32">
					<dim>1</dim>
					<dim>256</dim>
					<dim>13</dim>
					<dim>13</dim>
				</port>
				<port id="1" precision="FP32">
					<dim>128</dim>
					<dim>256</dim>
					<dim>1</dim>
					<dim>1</dim>
				</port>
			</input>
			<output>
				<port id="2" precision="FP32">
					<dim>1</dim>
					<dim>128</dim>
					<dim>13</dim>
					<dim>13</dim>
				</port>
			</output>
		</layer>
		<layer id="239" name="Constant_18740" type="Const" version="opset1">
			<data element_type="f32" shape="1, 128, 1, 1" offset="31594645" size="512" />
			<output>
				<port id="0" precision="FP32">
					<dim>1</dim>
					<dim>128</dim>
					<dim>1</dim>
					<dim>1</dim>
				</port>
			</output>
		</layer>
		<layer id="240" name="batch_normalization_10" type="Add" version="opset1">
			<data auto_broadcast="numpy" />
			<input>
				<port id="0" precision="FP32">
					<dim>1</dim>
					<dim>128</dim>
					<dim>13</dim>
					<dim>13</dim>
				</port>
				<port id="1" precision="FP32">
					<dim>1</dim>
					<dim>128</dim>
					<dim>1</dim>
					<dim>1</dim>
				</port>
			</input>
			<output>
				<port id="2" precision="FP32" names="batch_norm_output_buffer2">
					<dim>1</dim>
					<dim>128</dim>
					<dim>13</dim>
					<dim>13</dim>
				</port>
			</output>
		</layer>
		<layer id="241" name="Constant_320" type="Const" version="opset1">
			<data element_type="f32" shape="1" offset="1792" size="4" />
			<output>
				<port id="0" precision="FP32">
					<dim>1</dim>
				</port>
			</output>
		</layer>
		<layer id="242" name="leaky_re_lu_10" type="PReLU" version="opset1">
			<input>
				<port id="0" precision="FP32">
					<dim>1</dim>
					<dim>128</dim>
					<dim>13</dim>
					<dim>13</dim>
				</port>
				<port id="1" precision="FP32">
					<dim>1</dim>
				</port>
			</input>
			<output>
				<port id="2" precision="FP32" names="model_1/leaky_re_lu_10/LeakyRelu:0">
					<dim>1</dim>
					<dim>128</dim>
					<dim>13</dim>
					<dim>13</dim>
				</port>
			</output>
		</layer>
		<layer id="243" name="ShapeOf_322" type="ShapeOf" version="opset3">
			<data output_type="i64" />
			<input>
				<port id="0" precision="FP32">
					<dim>1</dim>
					<dim>128</dim>
					<dim>13</dim>
					<dim>13</dim>
				</port>
			</input>
			<output>
				<port id="1" precision="I64">
					<dim>4</dim>
				</port>
			</output>
		</layer>
		<layer id="244" name="Convert_323" type="Convert" version="opset1">
			<data destination_type="f32" />
			<input>
				<port id="0" precision="I64">
					<dim>4</dim>
				</port>
			</input>
			<output>
				<port id="1" precision="FP32">
					<dim>4</dim>
				</port>
			</output>
		</layer>
		<layer id="245" name="Resize_scales" type="Const" version="opset1">
			<data element_type="f32" shape="4" offset="31595157" size="16" />
			<output>
				<port id="0" precision="FP32" names="Resize_scales">
					<dim>4</dim>
				</port>
			</output>
		</layer>
		<layer id="246" name="Multiply_324" type="Multiply" version="opset1">
			<data auto_broadcast="numpy" />
			<input>
				<port id="0" precision="FP32">
					<dim>4</dim>
				</port>
				<port id="1" precision="FP32">
					<dim>4</dim>
				</port>
			</input>
			<output>
				<port id="2" precision="FP32">
					<dim>4</dim>
				</port>
			</output>
		</layer>
		<layer id="247" name="Convert_325" type="Convert" version="opset1">
			<data destination_type="i64" />
			<input>
				<port id="0" precision="FP32">
					<dim>4</dim>
				</port>
			</input>
			<output>
				<port id="1" precision="I64">
					<dim>4</dim>
				</port>
			</output>
		</layer>
		<layer id="248" name="Resize" type="Interpolate" version="opset4">
			<data mode="nearest" shape_calculation_mode="scales" coordinate_transformation_mode="asymmetric" nearest_mode="floor" antialias="false" pads_begin="0, 0, 0, 0" pads_end="0, 0, 0, 0" cube_coeff="-0.75" />
			<input>
				<port id="0" precision="FP32">
					<dim>1</dim>
					<dim>128</dim>
					<dim>13</dim>
					<dim>13</dim>
				</port>
				<port id="1" precision="I64">
					<dim>4</dim>
				</port>
				<port id="2" precision="FP32">
					<dim>4</dim>
				</port>
			</input>
			<output>
				<port id="3" precision="FP32" names="model_1/leaky_re_lu_10/LeakyRelu:0_permuted_upsampled">
					<dim>1</dim>
					<dim>128</dim>
					<dim>26</dim>
					<dim>26</dim>
				</port>
			</output>
		</layer>
		<layer id="249" name="concatenate_1" type="Concat" version="opset1">
			<data axis="1" />
			<input>
				<port id="0" precision="FP32">
					<dim>1</dim>
					<dim>128</dim>
					<dim>26</dim>
					<dim>26</dim>
				</port>
				<port id="1" precision="FP32">
					<dim>1</dim>
					<dim>256</dim>
					<dim>26</dim>
					<dim>26</dim>
				</port>
			</input>
			<output>
				<port id="2" precision="FP32" names="model_1/concatenate_1/concat:0">
					<dim>1</dim>
					<dim>384</dim>
					<dim>26</dim>
					<dim>26</dim>
				</port>
			</output>
		</layer>
		<layer id="250" name="Multiply_18852" type="Const" version="opset1">
			<data element_type="f32" shape="256, 384, 3, 3" offset="31595173" size="3538944" />
			<output>
				<port id="0" precision="FP32">
					<dim>256</dim>
					<dim>384</dim>
					<dim>3</dim>
					<dim>3</dim>
				</port>
			</output>
		</layer>
		<layer id="251" name="Multiply_18742" type="Convolution" version="opset1">
			<data strides="1, 1" dilations="1, 1" pads_begin="0, 0" pads_end="0, 0" auto_pad="same_upper" />
			<input>
				<port id="0" precision="FP32">
					<dim>1</dim>
					<dim>384</dim>
					<dim>26</dim>
					<dim>26</dim>
				</port>
				<port id="1" precision="FP32">
					<dim>256</dim>
					<dim>384</dim>
					<dim>3</dim>
					<dim>3</dim>
				</port>
			</input>
			<output>
				<port id="2" precision="FP32">
					<dim>1</dim>
					<dim>256</dim>
					<dim>26</dim>
					<dim>26</dim>
				</port>
			</output>
		</layer>
		<layer id="252" name="Constant_18747" type="Const" version="opset1">
			<data element_type="f32" shape="1, 256, 1, 1" offset="35134117" size="1024" />
			<output>
				<port id="0" precision="FP32">
					<dim>1</dim>
					<dim>256</dim>
					<dim>1</dim>
					<dim>1</dim>
				</port>
			</output>
		</layer>
		<layer id="253" name="batch_normalization_11" type="Add" version="opset1">
			<data auto_broadcast="numpy" />
			<input>
				<port id="0" precision="FP32">
					<dim>1</dim>
					<dim>256</dim>
					<dim>26</dim>
					<dim>26</dim>
				</port>
				<port id="1" precision="FP32">
					<dim>1</dim>
					<dim>256</dim>
					<dim>1</dim>
					<dim>1</dim>
				</port>
			</input>
			<output>
				<port id="2" precision="FP32" names="batch_norm_output_buffer">
					<dim>1</dim>
					<dim>256</dim>
					<dim>26</dim>
					<dim>26</dim>
				</port>
			</output>
		</layer>
		<layer id="254" name="Constant_336" type="Const" version="opset1">
			<data element_type="f32" shape="1" offset="1792" size="4" />
			<output>
				<port id="0" precision="FP32">
					<dim>1</dim>
				</port>
			</output>
		</layer>
		<layer id="255" name="leaky_re_lu_11" type="PReLU" version="opset1">
			<input>
				<port id="0" precision="FP32">
					<dim>1</dim>
					<dim>256</dim>
					<dim>26</dim>
					<dim>26</dim>
				</port>
				<port id="1" precision="FP32">
					<dim>1</dim>
				</port>
			</input>
			<output>
				<port id="2" precision="FP32" names="model_1/leaky_re_lu_11/LeakyRelu:0">
					<dim>1</dim>
					<dim>256</dim>
					<dim>26</dim>
					<dim>26</dim>
				</port>
			</output>
		</layer>
		<layer id="256" name="conv2d_13/kernel:0" type="Const" version="opset1">
			<data element_type="f32" shape="255, 256, 1, 1" offset="35135141" size="261120" />
			<output>
				<port id="0" precision="FP32" names="conv2d_13/kernel:0">
					<dim>255</dim>
					<dim>256</dim>
					<dim>1</dim>
					<dim>1</dim>
				</port>
			</output>
		</layer>
		<layer id="257" name="conv2d_13/WithoutBiases" type="Convolution" version="opset1">
			<data strides="1, 1" dilations="1, 1" pads_begin="0, 0" pads_end="0, 0" auto_pad="same_upper" />
			<input>
				<port id="0" precision="FP32">
					<dim>1</dim>
					<dim>256</dim>
					<dim>26</dim>
					<dim>26</dim>
				</port>
				<port id="1" precision="FP32">
					<dim>255</dim>
					<dim>256</dim>
					<dim>1</dim>
					<dim>1</dim>
				</port>
			</input>
			<output>
				<port id="2" precision="FP32">
					<dim>1</dim>
					<dim>255</dim>
					<dim>26</dim>
					<dim>26</dim>
				</port>
			</output>
		</layer>
		<layer id="258" name="Reshape_408" type="Const" version="opset1">
			<data element_type="f32" shape="1, 255, 1, 1" offset="35396261" size="1020" />
			<output>
				<port id="0" precision="FP32">
					<dim>1</dim>
					<dim>255</dim>
					<dim>1</dim>
					<dim>1</dim>
				</port>
			</output>
		</layer>
		<layer id="259" name="conv2d_13" type="Add" version="opset1">
			<data auto_broadcast="numpy" />
			<input>
				<port id="0" precision="FP32">
					<dim>1</dim>
					<dim>255</dim>
					<dim>26</dim>
					<dim>26</dim>
				</port>
				<port id="1" precision="FP32">
					<dim>1</dim>
					<dim>255</dim>
					<dim>1</dim>
					<dim>1</dim>
				</port>
			</input>
			<output>
				<port id="2" precision="FP32" names="convolution_output">
					<dim>1</dim>
					<dim>255</dim>
					<dim>26</dim>
					<dim>26</dim>
				</port>
			</output>
		</layer>
		<layer id="260" name="Constant_436" type="Const" version="opset1">
			<data element_type="i64" shape="4" offset="31463040" size="32" />
			<output>
				<port id="0" precision="I64">
					<dim>4</dim>
				</port>
			</output>
		</layer>
		<layer id="261" name="TFNodes/model_1/conv2d_13/BiasAdd:0" type="Transpose" version="opset1">
			<input>
				<port id="0" precision="FP32">
					<dim>1</dim>
					<dim>255</dim>
					<dim>26</dim>
					<dim>26</dim>
				</port>
				<port id="1" precision="I64">
					<dim>4</dim>
				</port>
			</input>
			<output>
				<port id="2" precision="FP32" names="TFNodes/model_1/conv2d_13/BiasAdd:0,transpose_output">
					<dim>1</dim>
					<dim>26</dim>
					<dim>26</dim>
					<dim>255</dim>
				</port>
			</output>
		</layer>
		<layer id="262" name="TFNodes/yolo_evaluation_layer_1/Reshape_9/shape_Unsqueeze__30" type="Const" version="opset1">
			<data element_type="i32" shape="1" offset="31463072" size="4" />
			<output>
				<port id="0" precision="I32" names="TFNodes/yolo_evaluation_layer_1/Reshape_9/shape_Unsqueeze__30:0">
					<dim>1</dim>
				</port>
			</output>
		</layer>
		<layer id="263" name="TFNodes/yolo_evaluation_layer_1/Shape_2" type="ShapeOf" version="opset3">
			<data output_type="i64" />
			<input>
				<port id="0" precision="FP32">
					<dim>1</dim>
					<dim>26</dim>
					<dim>26</dim>
					<dim>255</dim>
				</port>
			</input>
			<output>
				<port id="1" precision="I64" names="TFNodes/yolo_evaluation_layer_1/Shape_2:0">
					<dim>4</dim>
				</port>
			</output>
		</layer>
		<layer id="264" name="TFNodes/yolo_evaluation_layer_1/Shape_2__11" type="Convert" version="opset1">
			<data destination_type="i32" />
			<input>
				<port id="0" precision="I64">
					<dim>4</dim>
				</port>
			</input>
			<output>
				<port id="1" precision="I32" names="TFNodes/yolo_evaluation_layer_1/Shape_2__11:0">
					<dim>4</dim>
				</port>
			</output>
		</layer>
		<layer id="265" name="TFNodes/yolo_evaluation_layer_1/strided_slice_20__12" type="Const" version="opset1">
			<data element_type="i64" shape="1" offset="31463076" size="8" />
			<output>
				<port id="0" precision="I64" names="TFNodes/yolo_evaluation_layer_1/strided_slice_20__12:0">
					<dim>1</dim>
				</port>
			</output>
		</layer>
		<layer id="266" name="TFNodes/yolo_evaluation_layer_1/strided_slice_20__13" type="Const" version="opset1">
			<data element_type="i64" shape="1" offset="31463084" size="8" />
			<output>
				<port id="0" precision="I64" names="TFNodes/yolo_evaluation_layer_1/strided_slice_20__13:0">
					<dim>1</dim>
				</port>
			</output>
		</layer>
		<layer id="267" name="TFNodes/yolo_evaluation_layer_1/strided_slice_20__15" type="Const" version="opset1">
			<data element_type="i64" shape="1" offset="31463076" size="8" />
			<output>
				<port id="0" precision="I64" names="TFNodes/yolo_evaluation_layer_1/strided_slice_20__15">
					<dim>1</dim>
				</port>
			</output>
		</layer>
		<layer id="268" name="TFNodes/yolo_evaluation_layer_1/strided_slice_20" type="StridedSlice" version="opset1">
			<data begin_mask="0" end_mask="0" new_axis_mask="" shrink_axis_mask="" ellipsis_mask="" />
			<input>
				<port id="0" precision="I32">
					<dim>4</dim>
				</port>
				<port id="1" precision="I64">
					<dim>1</dim>
				</port>
				<port id="2" precision="I64">
					<dim>1</dim>
				</port>
				<port id="3" precision="I64">
					<dim>1</dim>
				</port>
			</input>
			<output>
				<port id="4" precision="I32" names="TFNodes/yolo_evaluation_layer_1/strided_slice_20:0">
					<dim>2</dim>
				</port>
			</output>
		</layer>
		<layer id="269" name="TFNodes/yolo_evaluation_layer_1/strided_slice_25__25" type="Const" version="opset1">
			<data element_type="i64" shape="1" offset="31463092" size="8" />
			<output>
				<port id="0" precision="I64" names="TFNodes/yolo_evaluation_layer_1/strided_slice_25__25">
					<dim>1</dim>
				</port>
			</output>
		</layer>
		<layer id="270" name="TFNodes/yolo_evaluation_layer_1/strided_slice_25__26" type="Const" version="opset1">
			<data element_type="i64" shape="1" offset="31463076" size="8" />
			<output>
				<port id="0" precision="I64" names="TFNodes/yolo_evaluation_layer_1/strided_slice_25__26">
					<dim>1</dim>
				</port>
			</output>
		</layer>
		<layer id="271" name="TFNodes/yolo_evaluation_layer_1/strided_slice_25__28" type="Const" version="opset1">
			<data element_type="i64" shape="1" offset="31463076" size="8" />
			<output>
				<port id="0" precision="I64" names="TFNodes/yolo_evaluation_layer_1/strided_slice_25__28">
					<dim>1</dim>
				</port>
			</output>
		</layer>
		<layer id="272" name="TFNodes/yolo_evaluation_layer_1/strided_slice_25" type="StridedSlice" version="opset1">
			<data begin_mask="0" end_mask="0" new_axis_mask="" shrink_axis_mask="" ellipsis_mask="" />
			<input>
				<port id="0" precision="I32">
					<dim>2</dim>
				</port>
				<port id="1" precision="I64">
					<dim>1</dim>
				</port>
				<port id="2" precision="I64">
					<dim>1</dim>
				</port>
				<port id="3" precision="I64">
					<dim>1</dim>
				</port>
			</input>
			<output>
				<port id="4" precision="I32" names="TFNodes/yolo_evaluation_layer_1/strided_slice_25:0">
					<dim>1</dim>
				</port>
			</output>
		</layer>
		<layer id="273" name="Constant_1967" type="Const" version="opset1">
			<data element_type="u64" shape="1" offset="31463092" size="8" />
			<output>
				<port id="0" precision="U64">
					<dim>1</dim>
				</port>
			</output>
		</layer>
		<layer id="274" name="TFNodes/yolo_evaluation_layer_1/strided_slice_25__29" type="Squeeze" version="opset1">
			<input>
				<port id="0" precision="I32">
					<dim>1</dim>
				</port>
				<port id="1" precision="U64">
					<dim>1</dim>
				</port>
			</input>
			<output>
				<port id="2" precision="I32" names="TFNodes/yolo_evaluation_layer_1/strided_slice_25__29:0" />
			</output>
		</layer>
		<layer id="275" name="Constant_1969" type="Const" version="opset1">
			<data element_type="i64" shape="1" offset="31463092" size="8" />
			<output>
				<port id="0" precision="I64">
					<dim>1</dim>
				</port>
			</output>
		</layer>
		<layer id="276" name="TFNodes/yolo_evaluation_layer_1/Reshape_9/shape_Unsqueeze__31" type="Unsqueeze" version="opset1">
			<input>
				<port id="0" precision="I32" />
				<port id="1" precision="I64">
					<dim>1</dim>
				</port>
			</input>
			<output>
				<port id="2" precision="I32" names="TFNodes/yolo_evaluation_layer_1/Reshape_9/shape_Unsqueeze__31:0">
					<dim>1</dim>
				</port>
			</output>
		</layer>
		<layer id="277" name="TFNodes/yolo_evaluation_layer_1/strided_slice_26__20" type="Const" version="opset1">
			<data element_type="i64" shape="1" offset="31463076" size="8" />
			<output>
				<port id="0" precision="I64" names="TFNodes/yolo_evaluation_layer_1/strided_slice_26__20">
					<dim>1</dim>
				</port>
			</output>
		</layer>
		<layer id="278" name="TFNodes/yolo_evaluation_layer_1/strided_slice_26__21" type="Const" version="opset1">
			<data element_type="i64" shape="1" offset="31463100" size="8" />
			<output>
				<port id="0" precision="I64" names="TFNodes/yolo_evaluation_layer_1/strided_slice_26__21">
					<dim>1</dim>
				</port>
			</output>
		</layer>
		<layer id="279" name="TFNodes/yolo_evaluation_layer_1/strided_slice_26__23" type="Const" version="opset1">
			<data element_type="i64" shape="1" offset="31463076" size="8" />
			<output>
				<port id="0" precision="I64" names="TFNodes/yolo_evaluation_layer_1/strided_slice_26__23">
					<dim>1</dim>
				</port>
			</output>
		</layer>
		<layer id="280" name="TFNodes/yolo_evaluation_layer_1/strided_slice_26" type="StridedSlice" version="opset1">
			<data begin_mask="0" end_mask="0" new_axis_mask="" shrink_axis_mask="" ellipsis_mask="" />
			<input>
				<port id="0" precision="I32">
					<dim>2</dim>
				</port>
				<port id="1" precision="I64">
					<dim>1</dim>
				</port>
				<port id="2" precision="I64">
					<dim>1</dim>
				</port>
				<port id="3" precision="I64">
					<dim>1</dim>
				</port>
			</input>
			<output>
				<port id="4" precision="I32" names="TFNodes/yolo_evaluation_layer_1/strided_slice_26:0">
					<dim>1</dim>
				</port>
			</output>
		</layer>
		<layer id="281" name="Constant_1972" type="Const" version="opset1">
			<data element_type="u64" shape="1" offset="31463092" size="8" />
			<output>
				<port id="0" precision="U64">
					<dim>1</dim>
				</port>
			</output>
		</layer>
		<layer id="282" name="TFNodes/yolo_evaluation_layer_1/strided_slice_26__24" type="Squeeze" version="opset1">
			<input>
				<port id="0" precision="I32">
					<dim>1</dim>
				</port>
				<port id="1" precision="U64">
					<dim>1</dim>
				</port>
			</input>
			<output>
				<port id="2" precision="I32" names="TFNodes/yolo_evaluation_layer_1/strided_slice_26__24:0" />
			</output>
		</layer>
		<layer id="283" name="Constant_1974" type="Const" version="opset1">
			<data element_type="i64" shape="1" offset="31463092" size="8" />
			<output>
				<port id="0" precision="I64">
					<dim>1</dim>
				</port>
			</output>
		</layer>
		<layer id="284" name="TFNodes/yolo_evaluation_layer_1/Reshape_9/shape_Unsqueeze__32" type="Unsqueeze" version="opset1">
			<input>
				<port id="0" precision="I32" />
				<port id="1" precision="I64">
					<dim>1</dim>
				</port>
			</input>
			<output>
				<port id="2" precision="I32" names="TFNodes/yolo_evaluation_layer_1/Reshape_9/shape_Unsqueeze__32:0">
					<dim>1</dim>
				</port>
			</output>
		</layer>
		<layer id="285" name="TFNodes/yolo_evaluation_layer_1/Reshape_9/shape_Unsqueeze__33" type="Const" version="opset1">
			<data element_type="i32" shape="1" offset="31463108" size="4" />
			<output>
				<port id="0" precision="I32" names="TFNodes/yolo_evaluation_layer_1/Reshape_9/shape_Unsqueeze__33:0">
					<dim>1</dim>
				</port>
			</output>
		</layer>
		<layer id="286" name="TFNodes/yolo_evaluation_layer_1/Reshape_9/shape_Unsqueeze__34" type="Const" version="opset1">
			<data element_type="i32" shape="1" offset="31463112" size="4" />
			<output>
				<port id="0" precision="I32" names="TFNodes/yolo_evaluation_layer_1/Reshape_9/shape_Unsqueeze__34:0">
					<dim>1</dim>
				</port>
			</output>
		</layer>
		<layer id="287" name="TFNodes/yolo_evaluation_layer_1/Reshape_9/shape_Concat__35" type="Concat" version="opset1">
			<data axis="0" />
			<input>
				<port id="0" precision="I32">
					<dim>1</dim>
				</port>
				<port id="1" precision="I32">
					<dim>1</dim>
				</port>
				<port id="2" precision="I32">
					<dim>1</dim>
				</port>
				<port id="3" precision="I32">
					<dim>1</dim>
				</port>
				<port id="4" precision="I32">
					<dim>1</dim>
				</port>
			</input>
			<output>
				<port id="5" precision="I32" names="TFNodes/yolo_evaluation_layer_1/Reshape_9/shape_Concat__35:0">
					<dim>5</dim>
				</port>
			</output>
		</layer>
		<layer id="288" name="TFNodes/yolo_evaluation_layer_1/Reshape_9__86" type="Convert" version="opset1">
			<data destination_type="i64" />
			<input>
				<port id="0" precision="I32">
					<dim>5</dim>
				</port>
			</input>
			<output>
				<port id="1" precision="I64" names="TFNodes/yolo_evaluation_layer_1/Reshape_9__86:0">
					<dim>5</dim>
				</port>
			</output>
		</layer>
		<layer id="289" name="TFNodes/yolo_evaluation_layer_1/Reshape_9" type="Reshape" version="opset1">
			<data special_zero="true" />
			<input>
				<port id="0" precision="FP32">
					<dim>1</dim>
					<dim>26</dim>
					<dim>26</dim>
					<dim>255</dim>
				</port>
				<port id="1" precision="I64">
					<dim>5</dim>
				</port>
			</input>
			<output>
				<port id="2" precision="FP32" names="TFNodes/yolo_evaluation_layer_1/Reshape_9:0">
					<dim>1</dim>
					<dim>26</dim>
					<dim>26</dim>
					<dim>3</dim>
					<dim>85</dim>
				</port>
			</output>
		</layer>
		<layer id="290" name="Constant_14109" type="Const" version="opset1">
			<data element_type="i64" shape="5" offset="31463116" size="40" />
			<output>
				<port id="0" precision="I64">
					<dim>5</dim>
				</port>
			</output>
		</layer>
		<layer id="291" name="Constant_14112" type="Const" version="opset1">
			<data element_type="i64" shape="5" offset="31463156" size="40" />
			<output>
				<port id="0" precision="I64">
					<dim>5</dim>
				</port>
			</output>
		</layer>
		<layer id="292" name="Constant_14115" type="Const" version="opset1">
			<data element_type="i64" shape="5" offset="31463196" size="40" />
			<output>
				<port id="0" precision="I64">
					<dim>5</dim>
				</port>
			</output>
		</layer>
		<layer id="293" name="TFNodes/yolo_evaluation_layer_1/strided_slice_27" type="StridedSlice" version="opset1">
			<data begin_mask="1, 1, 1, 1, 0" end_mask="1, 1, 1, 1, 0" new_axis_mask="" shrink_axis_mask="" ellipsis_mask="" />
			<input>
				<port id="0" precision="FP32">
					<dim>1</dim>
					<dim>26</dim>
					<dim>26</dim>
					<dim>3</dim>
					<dim>85</dim>
				</port>
				<port id="1" precision="I64">
					<dim>5</dim>
				</port>
				<port id="2" precision="I64">
					<dim>5</dim>
				</port>
				<port id="3" precision="I64">
					<dim>5</dim>
				</port>
			</input>
			<output>
				<port id="4" precision="FP32" names="TFNodes/yolo_evaluation_layer_1/strided_slice_27:0">
					<dim>1</dim>
					<dim>26</dim>
					<dim>26</dim>
					<dim>3</dim>
					<dim>2</dim>
				</port>
			</output>
		</layer>
		<layer id="294" name="TFNodes/yolo_evaluation_layer_1/Sigmoid_3" type="Sigmoid" version="opset1">
			<input>
				<port id="0" precision="FP32">
					<dim>1</dim>
					<dim>26</dim>
					<dim>26</dim>
					<dim>3</dim>
					<dim>2</dim>
				</port>
			</input>
			<output>
				<port id="1" precision="FP32" names="TFNodes/yolo_evaluation_layer_1/Sigmoid_3:0">
					<dim>1</dim>
					<dim>26</dim>
					<dim>26</dim>
					<dim>3</dim>
					<dim>2</dim>
				</port>
			</output>
		</layer>
		<layer id="295" name="TFNodes/yolo_evaluation_layer_1/strided_slice_23__46" type="Const" version="opset1">
			<data element_type="i64" shape="1" offset="31463076" size="8" />
			<output>
				<port id="0" precision="I64" names="TFNodes/yolo_evaluation_layer_1/strided_slice_23__46">
					<dim>1</dim>
				</port>
			</output>
		</layer>
		<layer id="296" name="TFNodes/yolo_evaluation_layer_1/strided_slice_23__47" type="Const" version="opset1">
			<data element_type="i64" shape="1" offset="31463100" size="8" />
			<output>
				<port id="0" precision="I64" names="TFNodes/yolo_evaluation_layer_1/strided_slice_23__47">
					<dim>1</dim>
				</port>
			</output>
		</layer>
		<layer id="297" name="TFNodes/yolo_evaluation_layer_1/strided_slice_23__49" type="Const" version="opset1">
			<data element_type="i64" shape="1" offset="31463076" size="8" />
			<output>
				<port id="0" precision="I64" names="TFNodes/yolo_evaluation_layer_1/strided_slice_23__49">
					<dim>1</dim>
				</port>
			</output>
		</layer>
		<layer id="298" name="TFNodes/yolo_evaluation_layer_1/strided_slice_23" type="StridedSlice" version="opset1">
			<data begin_mask="0" end_mask="0" new_axis_mask="" shrink_axis_mask="" ellipsis_mask="" />
			<input>
				<port id="0" precision="I32">
					<dim>2</dim>
				</port>
				<port id="1" precision="I64">
					<dim>1</dim>
				</port>
				<port id="2" precision="I64">
					<dim>1</dim>
				</port>
				<port id="3" precision="I64">
					<dim>1</dim>
				</port>
			</input>
			<output>
				<port id="4" precision="I32" names="TFNodes/yolo_evaluation_layer_1/strided_slice_23:0">
					<dim>1</dim>
				</port>
			</output>
		</layer>
		<layer id="299" name="Constant_1691" type="Const" version="opset1">
			<data element_type="u64" shape="1" offset="31463092" size="8" />
			<output>
				<port id="0" precision="U64">
					<dim>1</dim>
				</port>
			</output>
		</layer>
		<layer id="300" name="TFNodes/yolo_evaluation_layer_1/strided_slice_23__50" type="Squeeze" version="opset1">
			<input>
				<port id="0" precision="I32">
					<dim>1</dim>
				</port>
				<port id="1" precision="U64">
					<dim>1</dim>
				</port>
			</input>
			<output>
				<port id="2" precision="I32" names="TFNodes/yolo_evaluation_layer_1/arange_3__51_diff__52:0,TFNodes/yolo_evaluation_layer_1/strided_slice_23__50:0" />
			</output>
		</layer>
		<layer id="301" name="TFNodes/yolo_evaluation_layer_1/arange_3__51_cast_diff" type="Convert" version="opset1">
			<data destination_type="f32" />
			<input>
				<port id="0" precision="I32" />
			</input>
			<output>
				<port id="1" precision="FP32" names="TFNodes/yolo_evaluation_layer_1/arange_3__51_cast_diff:0,TFNodes/yolo_evaluation_layer_1/arange_3__51_div:0" />
			</output>
		</layer>
		<layer id="302" name="TFNodes/yolo_evaluation_layer_1/arange_3__51_ceil" type="Ceiling" version="opset1">
			<input>
				<port id="0" precision="FP32" />
			</input>
			<output>
				<port id="1" precision="FP32" names="TFNodes/yolo_evaluation_layer_1/arange_3__51_ceil:0" />
			</output>
		</layer>
		<layer id="303" name="TFNodes/yolo_evaluation_layer_1/arange_3__51_trip_cnt" type="Convert" version="opset1">
			<data destination_type="i64" />
			<input>
				<port id="0" precision="FP32" />
			</input>
			<output>
				<port id="1" precision="I64" names="TFNodes/yolo_evaluation_layer_1/arange_3__51_trip_cnt:0" />
			</output>
		</layer>
		<layer id="304" name="TFNodes/yolo_evaluation_layer_1/arange_3__51_cond" type="Const" version="opset1">
			<data element_type="boolean" shape="" offset="31463236" size="1" />
			<output>
				<port id="0" precision="BOOL" names="TFNodes/yolo_evaluation_layer_1/arange_3__51_cond" />
			</output>
		</layer>
		<layer id="305" name="TFNodes/yolo_evaluation_layer_1/arange_3/start:0" type="Const" version="opset1">
			<data element_type="i32" shape="" offset="31463237" size="4" />
			<output>
				<port id="0" precision="I32" names="TFNodes/yolo_evaluation_layer_1/arange_3/start:0" />
			</output>
		</layer>
		<layer id="306" name="TFNodes/yolo_evaluation_layer_1/arange_3__51_loop" type="Loop" version="opset5">
			<port_map>
				<input external_port_id="2" internal_layer_id="0" />
				<output external_port_id="3" internal_layer_id="7" />
				<output axis="0" external_port_id="4" internal_layer_id="4" start="0" end="-1" stride="1" part_size="1" />
				<input external_port_id="-1" internal_layer_id="1" purpose="current_iteration" />
				<output external_port_id="-1" internal_layer_id="9" purpose="execution_condition" />
			</port_map>
			<back_edges>
				<edge from-layer="7" to-layer="0" />
			</back_edges>
			<input>
				<port id="0" precision="I64" />
				<port id="1" precision="BOOL" />
				<port id="2" precision="I32" />
			</input>
			<output>
				<port id="3" precision="I32" names="TFNodes/yolo_evaluation_layer_1/arange_3__51_loop:0" />
				<port id="4" precision="I32" names="TFNodes/yolo_evaluation_layer_1/arange_3__51_loop:1">
					<dim>26</dim>
				</port>
			</output>
			<body>
				<layers>
					<layer id="1" name="i" type="Parameter" version="opset1">
						<data shape="" element_type="i64" />
						<rt_info>
							<attribute name="fused_names" version="0" value="i" />
						</rt_info>
						<output>
							<port id="0" precision="I64" names="i" />
						</output>
					</layer>
					<layer id="0" name="range" type="Parameter" version="opset1">
						<data shape="" element_type="i32" />
						<rt_info>
							<attribute name="fused_names" version="0" value="range" />
						</rt_info>
						<output>
							<port id="0" precision="I32" names="prev,range" />
						</output>
					</layer>
					<layer id="2" name="Constant_1705" type="Const" version="opset1">
						<data element_type="i64" shape="1" offset="31463092" size="8" />
						<rt_info>
							<attribute name="fused_names" version="0" value="Constant_1705" />
						</rt_info>
						<output>
							<port id="0" precision="I64">
								<dim>1</dim>
							</port>
						</output>
					</layer>
					<layer id="3" name="Unsqueeze_1706" type="Unsqueeze" version="opset1">
						<rt_info>
							<attribute name="fused_names" version="0" value="Unsqueeze_1706" />
						</rt_info>
						<input>
							<port id="0" precision="I32" />
							<port id="1" precision="I64">
								<dim>1</dim>
							</port>
						</input>
						<output>
							<port id="2" precision="I32">
								<dim>1</dim>
							</port>
						</output>
					</layer>
					<layer id="5" name="TFNodes/yolo_evaluation_layer_1/arange_3/delta:0" type="Const" version="opset1">
						<data element_type="i32" shape="" offset="31463241" size="4" />
						<rt_info>
							<attribute name="fused_names" version="0" value="TFNodes/yolo_evaluation_layer_1/arange_3/delta:0" />
						</rt_info>
						<output>
							<port id="0" precision="I32" names="TFNodes/yolo_evaluation_layer_1/arange_3/delta:0" />
						</output>
					</layer>
					<layer id="6" name="current" type="Add" version="opset1">
						<data auto_broadcast="numpy" />
						<rt_info>
							<attribute name="fused_names" version="0" value="TFNodes/yolo_evaluation_layer_1/arange_3/delta:0, current" />
						</rt_info>
						<input>
							<port id="0" precision="I32" />
							<port id="1" precision="I32" />
						</input>
						<output>
							<port id="2" precision="I32" names="current" />
						</output>
					</layer>
					<layer id="8" name="Constant_1707" type="Const" version="opset1">
						<data element_type="boolean" shape="1" offset="31463236" size="1" />
						<rt_info>
							<attribute name="fused_names" version="0" value="Constant_1707" />
						</rt_info>
						<output>
							<port id="0" precision="BOOL">
								<dim>1</dim>
							</port>
						</output>
					</layer>
					<layer id="9" name="Result_1708" type="Result" version="opset1">
						<rt_info>
							<attribute name="fused_names" version="0" value="Result_1708" />
						</rt_info>
						<input>
							<port id="0" precision="BOOL">
								<dim>1</dim>
							</port>
						</input>
					</layer>
					<layer id="7" name="Result_1709" type="Result" version="opset1">
						<rt_info>
							<attribute name="fused_names" version="0" value="Result_1709" />
						</rt_info>
						<input>
							<port id="0" precision="I32" />
						</input>
					</layer>
					<layer id="4" name="Result_1710" type="Result" version="opset1">
						<rt_info>
							<attribute name="fused_names" version="0" value="Result_1710" />
						</rt_info>
						<input>
							<port id="0" precision="I32">
								<dim>1</dim>
							</port>
						</input>
					</layer>
				</layers>
				<edges>
					<edge from-layer="0" from-port="0" to-layer="3" to-port="0" />
					<edge from-layer="0" from-port="0" to-layer="6" to-port="0" />
					<edge from-layer="2" from-port="0" to-layer="3" to-port="1" />
					<edge from-layer="3" from-port="2" to-layer="4" to-port="0" />
					<edge from-layer="5" from-port="0" to-layer="6" to-port="1" />
					<edge from-layer="6" from-port="2" to-layer="7" to-port="0" />
					<edge from-layer="8" from-port="0" to-layer="9" to-port="0" />
				</edges>
				<rt_info />
			</body>
		</layer>
		<layer id="307" name="TFNodes/yolo_evaluation_layer_1/Reshape_8__59" type="Const" version="opset1">
			<data element_type="i64" shape="4" offset="31463245" size="32" />
			<output>
				<port id="0" precision="I64" names="TFNodes/yolo_evaluation_layer_1/Reshape_8__59:0">
					<dim>4</dim>
				</port>
			</output>
		</layer>
		<layer id="308" name="TFNodes/yolo_evaluation_layer_1/Reshape_8" type="Reshape" version="opset1">
			<data special_zero="true" />
			<input>
				<port id="0" precision="I32">
					<dim>26</dim>
				</port>
				<port id="1" precision="I64">
					<dim>4</dim>
				</port>
			</input>
			<output>
				<port id="2" precision="I32" names="TFNodes/yolo_evaluation_layer_1/Reshape_8:0">
					<dim>1</dim>
					<dim>26</dim>
					<dim>1</dim>
					<dim>1</dim>
				</port>
			</output>
		</layer>
		<layer id="309" name="TFNodes/yolo_evaluation_layer_1/strided_slice_24__36" type="Const" version="opset1">
			<data element_type="i64" shape="1" offset="31463092" size="8" />
			<output>
				<port id="0" precision="I64" names="TFNodes/yolo_evaluation_layer_1/strided_slice_24__36">
					<dim>1</dim>
				</port>
			</output>
		</layer>
		<layer id="310" name="TFNodes/yolo_evaluation_layer_1/strided_slice_24__37" type="Const" version="opset1">
			<data element_type="i64" shape="1" offset="31463076" size="8" />
			<output>
				<port id="0" precision="I64" names="TFNodes/yolo_evaluation_layer_1/strided_slice_24__37">
					<dim>1</dim>
				</port>
			</output>
		</layer>
		<layer id="311" name="TFNodes/yolo_evaluation_layer_1/strided_slice_24__39" type="Const" version="opset1">
			<data element_type="i64" shape="1" offset="31463076" size="8" />
			<output>
				<port id="0" precision="I64" names="TFNodes/yolo_evaluation_layer_1/strided_slice_24__39">
					<dim>1</dim>
				</port>
			</output>
		</layer>
		<layer id="312" name="TFNodes/yolo_evaluation_layer_1/strided_slice_24" type="StridedSlice" version="opset1">
			<data begin_mask="0" end_mask="0" new_axis_mask="" shrink_axis_mask="" ellipsis_mask="" />
			<input>
				<port id="0" precision="I32">
					<dim>2</dim>
				</port>
				<port id="1" precision="I64">
					<dim>1</dim>
				</port>
				<port id="2" precision="I64">
					<dim>1</dim>
				</port>
				<port id="3" precision="I64">
					<dim>1</dim>
				</port>
			</input>
			<output>
				<port id="4" precision="I32" names="TFNodes/yolo_evaluation_layer_1/strided_slice_24:0">
					<dim>1</dim>
				</port>
			</output>
		</layer>
		<layer id="313" name="Constant_1844" type="Const" version="opset1">
			<data element_type="u64" shape="1" offset="31463092" size="8" />
			<output>
				<port id="0" precision="U64">
					<dim>1</dim>
				</port>
			</output>
		</layer>
		<layer id="314" name="TFNodes/yolo_evaluation_layer_1/strided_slice_24__40" type="Squeeze" version="opset1">
			<input>
				<port id="0" precision="I32">
					<dim>1</dim>
				</port>
				<port id="1" precision="U64">
					<dim>1</dim>
				</port>
			</input>
			<output>
				<port id="2" precision="I32" names="TFNodes/yolo_evaluation_layer_1/strided_slice_24__40:0" />
			</output>
		</layer>
		<layer id="315" name="Constant_1846" type="Const" version="opset1">
			<data element_type="i64" shape="1" offset="31463092" size="8" />
			<output>
				<port id="0" precision="I64">
					<dim>1</dim>
				</port>
			</output>
		</layer>
		<layer id="316" name="TFNodes/yolo_evaluation_layer_1/Tile_3/multiples_Unsqueeze__41" type="Unsqueeze" version="opset1">
			<input>
				<port id="0" precision="I32" />
				<port id="1" precision="I64">
					<dim>1</dim>
				</port>
			</input>
			<output>
				<port id="2" precision="I32" names="TFNodes/yolo_evaluation_layer_1/Tile_3/multiples_Unsqueeze__41:0">
					<dim>1</dim>
				</port>
			</output>
		</layer>
		<layer id="317" name="TFNodes/yolo_evaluation_layer_1/Tile_3/multiples_Unsqueeze__42" type="Const" version="opset1">
			<data element_type="i32" shape="1" offset="31463241" size="4" />
			<output>
				<port id="0" precision="I32" names="TFNodes/yolo_evaluation_layer_1/Tile_3/multiples_Unsqueeze__42:0">
					<dim>1</dim>
				</port>
			</output>
		</layer>
		<layer id="318" name="TFNodes/yolo_evaluation_layer_1/Tile_3/multiples_Unsqueeze__43" type="Const" version="opset1">
			<data element_type="i32" shape="1" offset="31463241" size="4" />
			<output>
				<port id="0" precision="I32" names="TFNodes/yolo_evaluation_layer_1/Tile_3/multiples_Unsqueeze__43:0">
					<dim>1</dim>
				</port>
			</output>
		</layer>
		<layer id="319" name="TFNodes/yolo_evaluation_layer_1/Tile_3/multiples_Unsqueeze__44" type="Const" version="opset1">
			<data element_type="i32" shape="1" offset="31463241" size="4" />
			<output>
				<port id="0" precision="I32" names="TFNodes/yolo_evaluation_layer_1/Tile_3/multiples_Unsqueeze__44:0">
					<dim>1</dim>
				</port>
			</output>
		</layer>
		<layer id="320" name="TFNodes/yolo_evaluation_layer_1/Tile_3/multiples_Concat__45" type="Concat" version="opset1">
			<data axis="0" />
			<input>
				<port id="0" precision="I32">
					<dim>1</dim>
				</port>
				<port id="1" precision="I32">
					<dim>1</dim>
				</port>
				<port id="2" precision="I32">
					<dim>1</dim>
				</port>
				<port id="3" precision="I32">
					<dim>1</dim>
				</port>
			</input>
			<output>
				<port id="4" precision="I32" names="TFNodes/yolo_evaluation_layer_1/Tile_3/multiples_Concat__45:0">
					<dim>4</dim>
				</port>
			</output>
		</layer>
		<layer id="321" name="TFNodes/yolo_evaluation_layer_1/Tile_3__60" type="Convert" version="opset1">
			<data destination_type="i64" />
			<input>
				<port id="0" precision="I32">
					<dim>4</dim>
				</port>
			</input>
			<output>
				<port id="1" precision="I64" names="TFNodes/yolo_evaluation_layer_1/Tile_3__60:0">
					<dim>4</dim>
				</port>
			</output>
		</layer>
		<layer id="322" name="TFNodes/yolo_evaluation_layer_1/Tile_3" type="Tile" version="opset1">
			<input>
				<port id="0" precision="I32">
					<dim>1</dim>
					<dim>26</dim>
					<dim>1</dim>
					<dim>1</dim>
				</port>
				<port id="1" precision="I64">
					<dim>4</dim>
				</port>
			</input>
			<output>
				<port id="2" precision="I32" names="TFNodes/yolo_evaluation_layer_1/Tile_3:0">
					<dim>26</dim>
					<dim>26</dim>
					<dim>1</dim>
					<dim>1</dim>
				</port>
			</output>
		</layer>
		<layer id="323" name="TFNodes/yolo_evaluation_layer_1/strided_slice_21__71" type="Const" version="opset1">
			<data element_type="i64" shape="1" offset="31463092" size="8" />
			<output>
				<port id="0" precision="I64" names="TFNodes/yolo_evaluation_layer_1/strided_slice_21__71">
					<dim>1</dim>
				</port>
			</output>
		</layer>
		<layer id="324" name="TFNodes/yolo_evaluation_layer_1/strided_slice_21__72" type="Const" version="opset1">
			<data element_type="i64" shape="1" offset="31463076" size="8" />
			<output>
				<port id="0" precision="I64" names="TFNodes/yolo_evaluation_layer_1/strided_slice_21__72">
					<dim>1</dim>
				</port>
			</output>
		</layer>
		<layer id="325" name="TFNodes/yolo_evaluation_layer_1/strided_slice_21__74" type="Const" version="opset1">
			<data element_type="i64" shape="1" offset="31463076" size="8" />
			<output>
				<port id="0" precision="I64" names="TFNodes/yolo_evaluation_layer_1/strided_slice_21__74">
					<dim>1</dim>
				</port>
			</output>
		</layer>
		<layer id="326" name="TFNodes/yolo_evaluation_layer_1/strided_slice_21" type="StridedSlice" version="opset1">
			<data begin_mask="0" end_mask="0" new_axis_mask="" shrink_axis_mask="" ellipsis_mask="" />
			<input>
				<port id="0" precision="I32">
					<dim>2</dim>
				</port>
				<port id="1" precision="I64">
					<dim>1</dim>
				</port>
				<port id="2" precision="I64">
					<dim>1</dim>
				</port>
				<port id="3" precision="I64">
					<dim>1</dim>
				</port>
			</input>
			<output>
				<port id="4" precision="I32" names="TFNodes/yolo_evaluation_layer_1/strided_slice_21:0">
					<dim>1</dim>
				</port>
			</output>
		</layer>
		<layer id="327" name="Constant_1417" type="Const" version="opset1">
			<data element_type="u64" shape="1" offset="31463092" size="8" />
			<output>
				<port id="0" precision="U64">
					<dim>1</dim>
				</port>
			</output>
		</layer>
…
			<data element_type="i64" shape="5" offset="31463196" size="40" />
			<output>
				<port id="0" precision="I64">
					<dim>5</dim>
				</port>
			</output>
		</layer>
		<layer id="433" name="TFNodes/yolo_evaluation_layer_1/strided_slice_13" type="StridedSlice" version="opset1">
			<data begin_mask="1, 1, 1, 1, 0" end_mask="1, 1, 1, 1, 0" new_axis_mask="" shrink_axis_mask="" ellipsis_mask="" />
			<input>
				<port id="0" precision="FP32">
					<dim>1</dim>
					<dim>13</dim>
					<dim>13</dim>
					<dim>3</dim>
					<dim>85</dim>
				</port>
				<port id="1" precision="I64">
					<dim>5</dim>
				</port>
				<port id="2" precision="I64">
					<dim>5</dim>
				</port>
				<port id="3" precision="I64">
					<dim>5</dim>
				</port>
			</input>
			<output>
				<port id="4" precision="FP32" names="TFNodes/yolo_evaluation_layer_1/strided_slice_13:0">
					<dim>1</dim>
					<dim>13</dim>
					<dim>13</dim>
					<dim>3</dim>
					<dim>80</dim>
				</port>
			</output>
		</layer>
		<layer id="434" name="TFNodes/yolo_evaluation_layer_1/Sigmoid_2" type="Sigmoid" version="opset1">
			<input>
				<port id="0" precision="FP32">
					<dim>1</dim>
					<dim>13</dim>
					<dim>13</dim>
					<dim>3</dim>
					<dim>80</dim>
				</port>
			</input>
			<output>
				<port id="1" precision="FP32" names="TFNodes/yolo_evaluation_layer_1/Sigmoid_2:0">
					<dim>1</dim>
					<dim>13</dim>
					<dim>13</dim>
					<dim>3</dim>
					<dim>80</dim>
				</port>
			</output>
		</layer>
		<layer id="435" name="TFNodes/yolo_evaluation_layer_1/mul_6" type="Multiply" version="opset1">
			<data auto_broadcast="numpy" />
			<input>
				<port id="0" precision="FP32">
					<dim>1</dim>
					<dim>13</dim>
					<dim>13</dim>
					<dim>3</dim>
					<dim>1</dim>
				</port>
				<port id="1" precision="FP32">
					<dim>1</dim>
					<dim>13</dim>
					<dim>13</dim>
					<dim>3</dim>
					<dim>80</dim>
				</port>
			</input>
			<output>
				<port id="2" precision="FP32" names="TFNodes/yolo_evaluation_layer_1/mul_6:0">
					<dim>1</dim>
					<dim>13</dim>
					<dim>13</dim>
					<dim>3</dim>
					<dim>80</dim>
				</port>
			</output>
		</layer>
		<layer id="436" name="TFNodes/yolo_evaluation_layer_1/Reshape_5__217" type="Const" version="opset1">
			<data element_type="i64" shape="2" offset="35397385" size="16" />
			<output>
				<port id="0" precision="I64" names="TFNodes/yolo_evaluation_layer_1/Reshape_5__217:0">
					<dim>2</dim>
				</port>
			</output>
		</layer>
		<layer id="437" name="TFNodes/yolo_evaluation_layer_1/Reshape_5" type="Reshape" version="opset1">
			<data special_zero="true" />
			<input>
				<port id="0" precision="FP32">
					<dim>1</dim>
					<dim>13</dim>
					<dim>13</dim>
					<dim>3</dim>
					<dim>80</dim>
				</port>
				<port id="1" precision="I64">
					<dim>2</dim>
				</port>
			</input>
			<output>
				<port id="2" precision="FP32" names="TFNodes/yolo_evaluation_layer_1/Reshape_5:0">
					<dim>507</dim>
					<dim>80</dim>
				</port>
			</output>
		</layer>
		<layer id="438" name="Constant_14235" type="Const" version="opset1">
			<data element_type="i64" shape="5" offset="31463453" size="40" />
			<output>
				<port id="0" precision="I64">
					<dim>5</dim>
				</port>
			</output>
		</layer>
		<layer id="439" name="Constant_14238" type="Const" version="opset1">
			<data element_type="i64" shape="5" offset="35397305" size="40" />
			<output>
				<port id="0" precision="I64">
					<dim>5</dim>
				</port>
			</output>
		</layer>
		<layer id="440" name="Constant_14241" type="Const" version="opset1">
			<data element_type="i64" shape="5" offset="31463196" size="40" />
			<output>
				<port id="0" precision="I64">
					<dim>5</dim>
				</port>
			</output>
		</layer>
		<layer id="441" name="TFNodes/yolo_evaluation_layer_1/strided_slice_31" type="StridedSlice" version="opset1">
			<data begin_mask="1, 1, 1, 1, 0" end_mask="1, 1, 1, 1, 0" new_axis_mask="" shrink_axis_mask="" ellipsis_mask="" />
			<input>
				<port id="0" precision="FP32">
					<dim>1</dim>
					<dim>26</dim>
					<dim>26</dim>
					<dim>3</dim>
					<dim>85</dim>
				</port>
				<port id="1" precision="I64">
					<dim>5</dim>
				</port>
				<port id="2" precision="I64">
					<dim>5</dim>
				</port>
				<port id="3" precision="I64">
					<dim>5</dim>
				</port>
			</input>
			<output>
				<port id="4" precision="FP32" names="TFNodes/yolo_evaluation_layer_1/strided_slice_31:0">
					<dim>1</dim>
					<dim>26</dim>
					<dim>26</dim>
					<dim>3</dim>
					<dim>1</dim>
				</port>
			</output>
		</layer>
		<layer id="442" name="TFNodes/yolo_evaluation_layer_1/Sigmoid_4" type="Sigmoid" version="opset1">
			<input>
				<port id="0" precision="FP32">
					<dim>1</dim>
					<dim>26</dim>
					<dim>26</dim>
					<dim>3</dim>
					<dim>1</dim>
				</port>
			</input>
			<output>
				<port id="1" precision="FP32" names="TFNodes/yolo_evaluation_layer_1/Sigmoid_4:0">
					<dim>1</dim>
					<dim>26</dim>
					<dim>26</dim>
					<dim>3</dim>
					<dim>1</dim>
				</port>
			</output>
		</layer>
		<layer id="443" name="Constant_14247" type="Const" version="opset1">
			<data element_type="i64" shape="5" offset="35397305" size="40" />
			<output>
				<port id="0" precision="I64">
					<dim>5</dim>
				</port>
			</output>
		</layer>
		<layer id="444" name="Constant_14250" type="Const" version="opset1">
			<data element_type="i64" shape="5" offset="35397345" size="40" />
			<output>
				<port id="0" precision="I64">
					<dim>5</dim>
				</port>
			</output>
		</layer>
		<layer id="445" name="Constant_14253" type="Const" version="opset1">
			<data element_type="i64" shape="5" offset="31463196" size="40" />
			<output>
				<port id="0" precision="I64">
					<dim>5</dim>
				</port>
			</output>
		</layer>
		<layer id="446" name="TFNodes/yolo_evaluation_layer_1/strided_slice_32" type="StridedSlice" version="opset1">
			<data begin_mask="1, 1, 1, 1, 0" end_mask="1, 1, 1, 1, 0" new_axis_mask="" shrink_axis_mask="" ellipsis_mask="" />
			<input>
				<port id="0" precision="FP32">
					<dim>1</dim>
					<dim>26</dim>
					<dim>26</dim>
					<dim>3</dim>
					<dim>85</dim>
				</port>
				<port id="1" precision="I64">
					<dim>5</dim>
				</port>
				<port id="2" precision="I64">
					<dim>5</dim>
				</port>
				<port id="3" precision="I64">
					<dim>5</dim>
				</port>
			</input>
			<output>
				<port id="4" precision="FP32" names="TFNodes/yolo_evaluation_layer_1/strided_slice_32:0">
					<dim>1</dim>
					<dim>26</dim>
					<dim>26</dim>
					<dim>3</dim>
					<dim>80</dim>
				</port>
			</output>
		</layer>
		<layer id="447" name="TFNodes/yolo_evaluation_layer_1/Sigmoid_5" type="Sigmoid" version="opset1">
			<input>
				<port id="0" precision="FP32">
					<dim>1</dim>
					<dim>26</dim>
					<dim>26</dim>
					<dim>3</dim>
					<dim>80</dim>
				</port>
			</input>
			<output>
				<port id="1" precision="FP32" names="TFNodes/yolo_evaluation_layer_1/Sigmoid_5:0">
					<dim>1</dim>
					<dim>26</dim>
					<dim>26</dim>
					<dim>3</dim>
					<dim>80</dim>
				</port>
			</output>
		</layer>
		<layer id="448" name="TFNodes/yolo_evaluation_layer_1/mul_12" type="Multiply" version="opset1">
			<data auto_broadcast="numpy" />
			<input>
				<port id="0" precision="FP32">
					<dim>1</dim>
					<dim>26</dim>
					<dim>26</dim>
					<dim>3</dim>
					<dim>1</dim>
				</port>
				<port id="1" precision="FP32">
					<dim>1</dim>
					<dim>26</dim>
					<dim>26</dim>
					<dim>3</dim>
					<dim>80</dim>
				</port>
			</input>
			<output>
				<port id="2" precision="FP32" names="TFNodes/yolo_evaluation_layer_1/mul_12:0">
					<dim>1</dim>
					<dim>26</dim>
					<dim>26</dim>
					<dim>3</dim>
					<dim>80</dim>
				</port>
			</output>
		</layer>
		<layer id="449" name="TFNodes/yolo_evaluation_layer_1/Reshape_11__95" type="Const" version="opset1">
			<data element_type="i64" shape="2" offset="35397385" size="16" />
			<output>
				<port id="0" precision="I64" names="TFNodes/yolo_evaluation_layer_1/Reshape_11__95:0">
					<dim>2</dim>
				</port>
			</output>
		</layer>
		<layer id="450" name="TFNodes/yolo_evaluation_layer_1/Reshape_11" type="Reshape" version="opset1">
			<data special_zero="true" />
			<input>
				<port id="0" precision="FP32">
					<dim>1</dim>
					<dim>26</dim>
					<dim>26</dim>
					<dim>3</dim>
					<dim>80</dim>
				</port>
				<port id="1" precision="I64">
					<dim>2</dim>
				</port>
			</input>
			<output>
				<port id="2" precision="FP32" names="TFNodes/yolo_evaluation_layer_1/Reshape_11:0">
					<dim>2028</dim>
					<dim>80</dim>
				</port>
			</output>
		</layer>
		<layer id="451" name="TFNodes/yolo_evaluation_layer_1/concat_7" type="Concat" version="opset1">
			<data axis="0" />
			<input>
				<port id="0" precision="FP32">
					<dim>507</dim>
					<dim>80</dim>
				</port>
				<port id="1" precision="FP32">
					<dim>2028</dim>
					<dim>80</dim>
				</port>
			</input>
			<output>
				<port id="2" precision="FP32" names="TFNodes/yolo_evaluation_layer_1/concat_7:0">
					<dim>2535</dim>
					<dim>80</dim>
				</port>
			</output>
		</layer>
		<layer id="452" name="Constant_2212" type="Const" version="opset1">
			<data element_type="i64" shape="2" offset="35397401" size="16" />
			<output>
				<port id="0" precision="I64">
					<dim>2</dim>
				</port>
			</output>
		</layer>
		<layer id="453" name="Transpose" type="Transpose" version="opset1">
			<input>
				<port id="0" precision="FP32">
					<dim>2535</dim>
					<dim>80</dim>
				</port>
				<port id="1" precision="I64">
					<dim>2</dim>
				</port>
			</input>
			<output>
				<port id="2" precision="FP32" names="yolo_evaluation_layer_1/concat_7:0_tx">
					<dim>80</dim>
					<dim>2535</dim>
				</port>
			</output>
		</layer>
		<layer id="454" name="Constant_2214" type="Const" version="opset1">
			<data element_type="i64" shape="1" offset="31463092" size="8" />
			<output>
				<port id="0" precision="I64">
					<dim>1</dim>
				</port>
			</output>
		</layer>
		<layer id="455" name="yolonms_layer_1:1" type="Unsqueeze" version="opset1">
			<input>
				<port id="0" precision="FP32">
					<dim>80</dim>
					<dim>2535</dim>
				</port>
				<port id="1" precision="I64">
					<dim>1</dim>
				</port>
			</input>
			<output>
				<port id="2" precision="FP32" names="yolo_evaluation_layer_1/concat_7:0_btc,yolonms_layer_1:1">
					<dim>1</dim>
					<dim>80</dim>
					<dim>2535</dim>
				</port>
			</output>
		</layer>
		<layer id="456" name="max_output_size" type="Const" version="opset1">
			<data element_type="i64" shape="" offset="35397417" size="8" />
			<output>
				<port id="0" precision="I64" names="max_output_size" />
			</output>
		</layer>
		<layer id="457" name="iou_threshold" type="Const" version="opset1">
			<data element_type="f32" shape="" offset="31463449" size="4" />
			<output>
				<port id="0" precision="FP32" names="iou_threshold" />
			</output>
		</layer>
		<layer id="458" name="layer.score_threshold" type="Const" version="opset1">
			<data element_type="f32" shape="" offset="35397425" size="4" />
			<output>
				<port id="0" precision="FP32" names="layer.score_threshold" />
			</output>
		</layer>
		<layer id="459" name="yolonms_layer_1/non_max_suppression/NonMaxSuppressionV3" type="NonMaxSuppression" version="opset9">
			<data box_encoding="corner" sort_result_descending="false" output_type="i64" />
			<input>
				<port id="0" precision="FP32">
					<dim>1</dim>
					<dim>2535</dim>
					<dim>4</dim>
				</port>
				<port id="1" precision="FP32">
					<dim>1</dim>
					<dim>80</dim>
					<dim>2535</dim>
				</port>
				<port id="2" precision="I64" />
				<port id="3" precision="FP32" />
				<port id="4" precision="FP32" />
			</input>
			<output>
				<port id="5" precision="I64" names="casted">
					<dim>-1</dim>
					<dim>3</dim>
				</port>
				<port id="6" precision="FP32">
					<dim>-1</dim>
					<dim>3</dim>
				</port>
				<port id="7" precision="I64">
					<dim>1</dim>
				</port>
			</output>
		</layer>
		<layer id="460" name="Constant_2217" type="Const" version="opset1">
			<data element_type="i64" shape="1" offset="31463092" size="8" />
			<output>
				<port id="0" precision="I64">
					<dim>1</dim>
				</port>
			</output>
		</layer>
		<layer id="461" name="yolonms_layer_1/ExpandDims_5:01_btc" type="Unsqueeze" version="opset1">
			<input>
				<port id="0" precision="I64">
					<dim>-1</dim>
					<dim>3</dim>
				</port>
				<port id="1" precision="I64">
					<dim>1</dim>
				</port>
			</input>
			<output>
				<port id="2" precision="I64" names="yolonms_layer_1/ExpandDims_5:01_btc">
					<dim>1</dim>
					<dim>-1</dim>
					<dim>3</dim>
				</port>
			</output>
		</layer>
		<layer id="462" name="yolonms_layer_1:2" type="Convert" version="opset1">
			<data destination_type="i32" />
			<input>
				<port id="0" precision="I64">
					<dim>1</dim>
					<dim>-1</dim>
					<dim>3</dim>
				</port>
			</input>
			<output>
				<port id="1" precision="I32" names="yolonms_layer_1/ExpandDims_5:01,yolonms_layer_1:2">
					<dim>1</dim>
					<dim>-1</dim>
					<dim>3</dim>
				</port>
			</output>
		</layer>
		<layer id="465" name="yolonms_layer_1/sink_port_0" type="Result" version="opset1">
			<input>
				<port id="0" precision="FP32">
					<dim>1</dim>
					<dim>2535</dim>
					<dim>4</dim>
				</port>
			</input>
		</layer>
		<layer id="464" name="yolonms_layer_1:1/sink_port_0" type="Result" version="opset1">
			<input>
				<port id="0" precision="FP32">
					<dim>1</dim>
					<dim>80</dim>
					<dim>2535</dim>
				</port>
			</input>
		</layer>
		<layer id="463" name="yolonms_layer_1:2/sink_port_0" type="Result" version="opset1">
			<input>
				<port id="0" precision="I32">
					<dim>1</dim>
					<dim>-1</dim>
					<dim>3</dim>
				</port>
			</input>
		</layer>
	</layers>
	<edges>
		<edge from-layer="0" from-port="0" to-layer="179" to-port="0" />
		<edge from-layer="1" from-port="0" to-layer="3" to-port="0" />
		<edge from-layer="2" from-port="0" to-layer="3" to-port="1" />
		<edge from-layer="3" from-port="2" to-layer="5" to-port="0" />
		<edge from-layer="4" from-port="0" to-layer="5" to-port="1" />
		<edge from-layer="5" from-port="2" to-layer="7" to-port="0" />
		<edge from-layer="6" from-port="0" to-layer="7" to-port="1" />
		<edge from-layer="7" from-port="2" to-layer="8" to-port="0" />
		<edge from-layer="8" from-port="1" to-layer="10" to-port="0" />
		<edge from-layer="9" from-port="0" to-layer="10" to-port="1" />
		<edge from-layer="10" from-port="2" to-layer="12" to-port="0" />
		<edge from-layer="11" from-port="0" to-layer="12" to-port="1" />
		<edge from-layer="12" from-port="2" to-layer="14" to-port="0" />
		<edge from-layer="13" from-port="0" to-layer="14" to-port="1" />
		<edge from-layer="14" from-port="2" to-layer="15" to-port="0" />
		<edge from-layer="15" from-port="1" to-layer="17" to-port="0" />
		<edge from-layer="16" from-port="0" to-layer="17" to-port="1" />
		<edge from-layer="17" from-port="2" to-layer="19" to-port="0" />
		<edge from-layer="18" from-port="0" to-layer="19" to-port="1" />
		<edge from-layer="19" from-port="2" to-layer="21" to-port="0" />
		<edge from-layer="20" from-port="0" to-layer="21" to-port="1" />
		<edge from-layer="21" from-port="2" to-layer="22" to-port="0" />
		<edge from-layer="22" from-port="1" to-layer="24" to-port="0" />
		<edge from-layer="23" from-port="0" to-layer="24" to-port="1" />
		<edge from-layer="24" from-port="2" to-layer="26" to-port="0" />
		<edge from-layer="25" from-port="0" to-layer="26" to-port="1" />
		<edge from-layer="26" from-port="2" to-layer="28" to-port="0" />
		<edge from-layer="27" from-port="0" to-layer="28" to-port="1" />
		<edge from-layer="28" from-port="2" to-layer="29" to-port="0" />
		<edge from-layer="29" from-port="1" to-layer="31" to-port="0" />
		<edge from-layer="30" from-port="0" to-layer="31" to-port="1" />
		<edge from-layer="31" from-port="2" to-layer="33" to-port="0" />
		<edge from-layer="32" from-port="0" to-layer="33" to-port="1" />
		<edge from-layer="33" from-port="2" to-layer="35" to-port="0" />
		<edge from-layer="34" from-port="0" to-layer="35" to-port="1" />
		<edge from-layer="35" from-port="2" to-layer="36" to-port="0" />
		<edge from-layer="35" from-port="2" to-layer="249" to-port="1" />
		<edge from-layer="36" from-port="1" to-layer="38" to-port="0" />
		<edge from-layer="37" from-port="0" to-layer="38" to-port="1" />
		<edge from-layer="38" from-port="2" to-layer="40" to-port="0" />
		<edge from-layer="39" from-port="0" to-layer="40" to-port="1" />
		<edge from-layer="40" from-port="2" to-layer="42" to-port="0" />
		<edge from-layer="41" from-port="0" to-layer="42" to-port="1" />
		<edge from-layer="42" from-port="2" to-layer="43" to-port="0" />
		<edge from-layer="43" from-port="1" to-layer="45" to-port="0" />
		<edge from-layer="44" from-port="0" to-layer="45" to-port="1" />
		<edge from-layer="45" from-port="2" to-layer="47" to-port="0" />
		<edge from-layer="46" from-port="0" to-layer="47" to-port="1" />
		<edge from-layer="47" from-port="2" to-layer="49" to-port="0" />
		<edge from-layer="48" from-port="0" to-layer="49" to-port="1" />
		<edge from-layer="49" from-port="2" to-layer="51" to-port="0" />
		<edge from-layer="50" from-port="0" to-layer="51" to-port="1" />
		<edge from-layer="51" from-port="2" to-layer="53" to-port="0" />
		<edge from-layer="52" from-port="0" to-layer="53" to-port="1" />
		<edge from-layer="53" from-port="2" to-layer="55" to-port="0" />
		<edge from-layer="54" from-port="0" to-layer="55" to-port="1" />
		<edge from-layer="55" from-port="2" to-layer="57" to-port="0" />
		<edge from-layer="55" from-port="2" to-layer="238" to-port="0" />
		<edge from-layer="56" from-port="0" to-layer="57" to-port="1" />
		<edge from-layer="57" from-port="2" to-layer="59" to-port="0" />
		<edge from-layer="58" from-port="0" to-layer="59" to-port="1" />
		<edge from-layer="59" from-port="2" to-layer="61" to-port="0" />
		<edge from-layer="60" from-port="0" to-layer="61" to-port="1" />
		<edge from-layer="61" from-port="2" to-layer="63" to-port="0" />
		<edge from-layer="62" from-port="0" to-layer="63" to-port="1" />
		<edge from-layer="63" from-port="2" to-layer="65" to-port="0" />
		<edge from-layer="64" from-port="0" to-layer="65" to-port="1" />
		<edge from-layer="65" from-port="2" to-layer="67" to-port="0" />
		<edge from-layer="66" from-port="0" to-layer="67" to-port="1" />
		<edge from-layer="67" from-port="2" to-layer="69" to-port="0" />
		<edge from-layer="67" from-port="2" to-layer="95" to-port="0" />
		<edge from-layer="68" from-port="0" to-layer="93" to-port="0" />
		<edge from-layer="69" from-port="1" to-layer="70" to-port="0" />
		<edge from-layer="69" from-port="1" to-layer="170" to-port="0" />
		<edge from-layer="70" from-port="1" to-layer="74" to-port="0" />
		<edge from-layer="71" from-port="0" to-layer="74" to-port="1" />
		<edge from-layer="72" from-port="0" to-layer="74" to-port="2" />
		<edge from-layer="73" from-port="0" to-layer="74" to-port="3" />
		<edge from-layer="74" from-port="4" to-layer="132" to-port="0" />
		<edge from-layer="74" from-port="4" to-layer="147" to-port="0" />
		<edge from-layer="74" from-port="4" to-layer="163" to-port="0" />
		<edge from-layer="74" from-port="4" to-layer="78" to-port="0" />
		<edge from-layer="74" from-port="4" to-layer="86" to-port="0" />
		<edge from-layer="74" from-port="4" to-layer="104" to-port="0" />
		<edge from-layer="74" from-port="4" to-layer="118" to-port="0" />
		<edge from-layer="75" from-port="0" to-layer="78" to-port="1" />
		<edge from-layer="76" from-port="0" to-layer="78" to-port="2" />
		<edge from-layer="77" from-port="0" to-layer="78" to-port="3" />
		<edge from-layer="78" from-port="4" to-layer="80" to-port="0" />
		<edge from-layer="79" from-port="0" to-layer="80" to-port="1" />
		<edge from-layer="80" from-port="2" to-layer="82" to-port="0" />
		<edge from-layer="81" from-port="0" to-layer="82" to-port="1" />
		<edge from-layer="82" from-port="2" to-layer="93" to-port="1" />
		<edge from-layer="83" from-port="0" to-layer="86" to-port="1" />
		<edge from-layer="84" from-port="0" to-layer="86" to-port="2" />
		<edge from-layer="85" from-port="0" to-layer="86" to-port="3" />
		<edge from-layer="86" from-port="4" to-layer="88" to-port="0" />
		<edge from-layer="87" from-port="0" to-layer="88" to-port="1" />
		<edge from-layer="88" from-port="2" to-layer="90" to-port="0" />
		<edge from-layer="89" from-port="0" to-layer="90" to-port="1" />
		<edge from-layer="90" from-port="2" to-layer="93" to-port="2" />
		<edge from-layer="91" from-port="0" to-layer="93" to-port="3" />
		<edge from-layer="92" from-port="0" to-layer="93" to-port="4" />
		<edge from-layer="93" from-port="5" to-layer="94" to-port="0" />
		<edge from-layer="94" from-port="1" to-layer="95" to-port="1" />
		<edge from-layer="95" from-port="2" to-layer="99" to-port="0" />
		<edge from-layer="95" from-port="2" to-layer="195" to-port="0" />
		<edge from-layer="95" from-port="2" to-layer="433" to-port="0" />
		<edge from-layer="95" from-port="2" to-layer="428" to-port="0" />
		<edge from-layer="96" from-port="0" to-layer="99" to-port="1" />
		<edge from-layer="97" from-port="0" to-layer="99" to-port="2" />
		<edge from-layer="98" from-port="0" to-layer="99" to-port="3" />
		<edge from-layer="99" from-port="4" to-layer="100" to-port="0" />
		<edge from-layer="100" from-port="1" to-layer="159" to-port="0" />
		<edge from-layer="101" from-port="0" to-layer="104" to-port="1" />
		<edge from-layer="102" from-port="0" to-layer="104" to-port="2" />
		<edge from-layer="103" from-port="0" to-layer="104" to-port="3" />
		<edge from-layer="104" from-port="4" to-layer="106" to-port="0" />
		<edge from-layer="105" from-port="0" to-layer="106" to-port="1" />
		<edge from-layer="106" from-port="2" to-layer="107" to-port="0" />
		<edge from-layer="107" from-port="1" to-layer="108" to-port="0" />
		<edge from-layer="108" from-port="1" to-layer="109" to-port="0" />
		<edge from-layer="109" from-port="1" to-layer="112" to-port="0" />
		<edge from-layer="110" from-port="0" to-layer="112" to-port="1" />
		<edge from-layer="111" from-port="0" to-layer="112" to-port="2" />
		<edge from-layer="112" from-port="4" to-layer="114" to-port="0" />
		<edge from-layer="113" from-port="0" to-layer="114" to-port="1" />
		<edge from-layer="114" from-port="2" to-layer="128" to-port="0" />
		<edge from-layer="115" from-port="0" to-layer="118" to-port="1" />
		<edge from-layer="116" from-port="0" to-layer="118" to-port="2" />
		<edge from-layer="117" from-port="0" to-layer="118" to-port="3" />
		<edge from-layer="118" from-port="4" to-layer="120" to-port="0" />
		<edge from-layer="119" from-port="0" to-layer="120" to-port="1" />
		<edge from-layer="120" from-port="2" to-layer="122" to-port="0" />
		<edge from-layer="121" from-port="0" to-layer="122" to-port="1" />
		<edge from-layer="122" from-port="2" to-layer="126" to-port="0" />
		<edge from-layer="123" from-port="0" to-layer="126" to-port="1" />
		<edge from-layer="124" from-port="0" to-layer="126" to-port="2" />
		<edge from-layer="125" from-port="0" to-layer="126" to-port="3" />
		<edge from-layer="126" from-port="4" to-layer="127" to-port="0" />
		<edge from-layer="127" from-port="1" to-layer="128" to-port="1" />
		<edge from-layer="128" from-port="2" to-layer="157" to-port="0" />
		<edge from-layer="129" from-port="0" to-layer="132" to-port="1" />
		<edge from-layer="130" from-port="0" to-layer="132" to-port="2" />
		<edge from-layer="131" from-port="0" to-layer="132" to-port="3" />
		<edge from-layer="132" from-port="4" to-layer="134" to-port="0" />
		<edge from-layer="133" from-port="0" to-layer="134" to-port="1" />
		<edge from-layer="134" from-port="2" to-layer="135" to-port="0" />
		<edge from-layer="135" from-port="1" to-layer="136" to-port="0" />
		<edge from-layer="136" from-port="1" to-layer="137" to-port="0" />
		<edge from-layer="137" from-port="1" to-layer="140" to-port="0" />
		<edge from-layer="138" from-port="0" to-layer="140" to-port="1" />
		<edge from-layer="139" from-port="0" to-layer="140" to-port="2" />
		<edge from-layer="140" from-port="4" to-layer="142" to-port="0" />
		<edge from-layer="141" from-port="0" to-layer="142" to-port="1" />
		<edge from-layer="142" from-port="2" to-layer="156" to-port="0" />
		<edge from-layer="143" from-port="0" to-layer="154" to-port="0" />
		<edge from-layer="144" from-port="0" to-layer="147" to-port="1" />
		<edge from-layer="145" from-port="0" to-layer="147" to-port="2" />
		<edge from-layer="146" from-port="0" to-layer="147" to-port="3" />
		<edge from-layer="147" from-port="4" to-layer="149" to-port="0" />
		<edge from-layer="148" from-port="0" to-layer="149" to-port="1" />
		<edge from-layer="149" from-port="2" to-layer="151" to-port="0" />
		<edge from-layer="150" from-port="0" to-layer="151" to-port="1" />
		<edge from-layer="151" from-port="2" to-layer="154" to-port="1" />
		<edge from-layer="152" from-port="0" to-layer="154" to-port="2" />
		<edge from-layer="153" from-port="0" to-layer="154" to-port="3" />
		<edge from-layer="154" from-port="4" to-layer="155" to-port="0" />
		<edge from-layer="155" from-port="1" to-layer="156" to-port="1" />
		<edge from-layer="156" from-port="2" to-layer="157" to-port="1" />
		<edge from-layer="157" from-port="2" to-layer="158" to-port="0" />
		<edge from-layer="158" from-port="1" to-layer="159" to-port="1" />
		<edge from-layer="159" from-port="2" to-layer="165" to-port="0" />
		<edge from-layer="160" from-port="0" to-layer="163" to-port="1" />
		<edge from-layer="161" from-port="0" to-layer="163" to-port="2" />
		<edge from-layer="162" from-port="0" to-layer="163" to-port="3" />
		<edge from-layer="163" from-port="4" to-layer="164" to-port="0" />
		<edge from-layer="164" from-port="1" to-layer="165" to-port="1" />
		<edge from-layer="165" from-port="2" to-layer="169" to-port="0" />
		<edge from-layer="166" from-port="0" to-layer="169" to-port="1" />
		<edge from-layer="167" from-port="0" to-layer="169" to-port="2" />
		<edge from-layer="168" from-port="0" to-layer="169" to-port="3" />
		<edge from-layer="169" from-port="4" to-layer="189" to-port="0" />
		<edge from-layer="170" from-port="1" to-layer="174" to-port="0" />
		<edge from-layer="171" from-port="0" to-layer="174" to-port="1" />
		<edge from-layer="172" from-port="0" to-layer="174" to-port="2" />
		<edge from-layer="173" from-port="0" to-layer="174" to-port="3" />
		<edge from-layer="174" from-port="4" to-layer="176" to-port="0" />
		<edge from-layer="175" from-port="0" to-layer="176" to-port="1" />
		<edge from-layer="176" from-port="2" to-layer="177" to-port="0" />
		<edge from-layer="176" from-port="2" to-layer="202" to-port="0" />
		<edge from-layer="176" from-port="2" to-layer="364" to-port="0" />
		<edge from-layer="176" from-port="2" to-layer="387" to-port="0" />
		<edge from-layer="177" from-port="1" to-layer="188" to-port="1" />
		<edge from-layer="177" from-port="1" to-layer="180" to-port="0" />
		<edge from-layer="177" from-port="1" to-layer="190" to-port="0" />
		<edge from-layer="177" from-port="1" to-layer="185" to-port="0" />
		<edge from-layer="178" from-port="0" to-layer="179" to-port="1" />
		<edge from-layer="179" from-port="2" to-layer="180" to-port="1" />
		<edge from-layer="179" from-port="2" to-layer="233" to-port="1" />
		<edge from-layer="179" from-port="2" to-layer="183" to-port="0" />
		<edge from-layer="179" from-port="2" to-layer="365" to-port="1" />
		<edge from-layer="179" from-port="2" to-layer="368" to-port="0" />
		<edge from-layer="179" from-port="2" to-layer="418" to-port="0" />
		<edge from-layer="179" from-port="2" to-layer="418" to-port="1" />
		<edge from-layer="179" from-port="2" to-layer="233" to-port="0" />
		<edge from-layer="180" from-port="2" to-layer="182" to-port="0" />
		<edge from-layer="181" from-port="0" to-layer="182" to-port="1" />
		<edge from-layer="182" from-port="2" to-layer="183" to-port="1" />
		<edge from-layer="183" from-port="2" to-layer="184" to-port="0" />
		<edge from-layer="184" from-port="1" to-layer="185" to-port="1" />
		<edge from-layer="184" from-port="1" to-layer="190" to-port="1" />
		<edge from-layer="185" from-port="2" to-layer="187" to-port="0" />
		<edge from-layer="186" from-port="0" to-layer="187" to-port="1" />
		<edge from-layer="187" from-port="2" to-layer="188" to-port="0" />
		<edge from-layer="188" from-port="2" to-layer="189" to-port="1" />
		<edge from-layer="189" from-port="2" to-layer="191" to-port="0" />
		<edge from-layer="190" from-port="2" to-layer="191" to-port="1" />
		<edge from-layer="190" from-port="2" to-layer="209" to-port="1" />
		<edge from-layer="191" from-port="2" to-layer="223" to-port="0" />
		<edge from-layer="191" from-port="2" to-layer="212" to-port="0" />
		<edge from-layer="192" from-port="0" to-layer="195" to-port="1" />
		<edge from-layer="193" from-port="0" to-layer="195" to-port="2" />
		<edge from-layer="194" from-port="0" to-layer="195" to-port="3" />
		<edge from-layer="195" from-port="4" to-layer="196" to-port="0" />
		<edge from-layer="196" from-port="1" to-layer="198" to-port="0" />
		<edge from-layer="197" from-port="0" to-layer="198" to-port="1" />
		<edge from-layer="198" from-port="2" to-layer="204" to-port="0" />
		<edge from-layer="199" from-port="0" to-layer="202" to-port="1" />
		<edge from-layer="200" from-port="0" to-layer="202" to-port="2" />
		<edge from-layer="201" from-port="0" to-layer="202" to-port="3" />
		<edge from-layer="202" from-port="4" to-layer="203" to-port="0" />
		<edge from-layer="203" from-port="1" to-layer="204" to-port="1" />
		<edge from-layer="204" from-port="2" to-layer="208" to-port="0" />
		<edge from-layer="205" from-port="0" to-layer="208" to-port="1" />
		<edge from-layer="206" from-port="0" to-layer="208" to-port="2" />
		<edge from-layer="207" from-port="0" to-layer="208" to-port="3" />
		<edge from-layer="208" from-port="4" to-layer="209" to-port="0" />
		<edge from-layer="209" from-port="2" to-layer="211" to-port="0" />
		<edge from-layer="209" from-port="2" to-layer="222" to-port="0" />
		<edge from-layer="210" from-port="0" to-layer="211" to-port="1" />
		<edge from-layer="211" from-port="2" to-layer="212" to-port="1" />
		<edge from-layer="212" from-port="2" to-layer="216" to-port="0" />
		<edge from-layer="212" from-port="2" to-layer="220" to-port="0" />
		<edge from-layer="213" from-port="0" to-layer="216" to-port="1" />
		<edge from-layer="214" from-port="0" to-layer="216" to-port="2" />
		<edge from-layer="215" from-port="0" to-layer="216" to-port="3" />
		<edge from-layer="216" from-port="4" to-layer="232" to-port="0" />
		<edge from-layer="217" from-port="0" to-layer="220" to-port="1" />
		<edge from-layer="218" from-port="0" to-layer="220" to-port="2" />
		<edge from-layer="219" from-port="0" to-layer="220" to-port="3" />
		<edge from-layer="220" from-port="4" to-layer="232" to-port="1" />
		<edge from-layer="221" from-port="0" to-layer="222" to-port="1" />
		<edge from-layer="222" from-port="2" to-layer="223" to-port="1" />
		<edge from-layer="223" from-port="2" to-layer="227" to-port="0" />
		<edge from-layer="223" from-port="2" to-layer="231" to-port="0" />
		<edge from-layer="224" from-port="0" to-layer="227" to-port="1" />
		<edge from-layer="225" from-port="0" to-layer="227" to-port="2" />
		<edge from-layer="226" from-port="0" to-layer="227" to-port="3" />
		<edge from-layer="227" from-port="4" to-layer="232" to-port="2" />
		<edge from-layer="228" from-port="0" to-layer="231" to-port="1" />
		<edge from-layer="229" from-port="0" to-layer="231" to-port="2" />
		<edge from-layer="230" from-port="0" to-layer="231" to-port="3" />
		<edge from-layer="231" from-port="4" to-layer="232" to-port="3" />
		<edge from-layer="232" from-port="4" to-layer="234" to-port="0" />
		<edge from-layer="233" from-port="2" to-layer="234" to-port="1" />
		<edge from-layer="234" from-port="2" to-layer="236" to-port="0" />
		<edge from-layer="235" from-port="0" to-layer="236" to-port="1" />
		<edge from-layer="236" from-port="2" to-layer="422" to-port="0" />
		<edge from-layer="237" from-port="0" to-layer="238" to-port="1" />
		<edge from-layer="238" from-port="2" to-layer="240" to-port="0" />
		<edge from-layer="239" from-port="0" to-layer="240" to-port="1" />
		<edge from-layer="240" from-port="2" to-layer="242" to-port="0" />
		<edge from-layer="241" from-port="0" to-layer="242" to-port="1" />
		<edge from-layer="242" from-port="2" to-layer="248" to-port="0" />
		<edge from-layer="242" from-port="2" to-layer="243" to-port="0" />
		<edge from-layer="243" from-port="1" to-layer="244" to-port="0" />
		<edge from-layer="244" from-port="1" to-layer="246" to-port="0" />
		<edge from-layer="245" from-port="0" to-layer="248" to-port="2" />
		<edge from-layer="245" from-port="0" to-layer="246" to-port="1" />
		<edge from-layer="246" from-port="2" to-layer="247" to-port="0" />
		<edge from-layer="247" from-port="1" to-layer="248" to-port="1" />
		<edge from-layer="248" from-port="3" to-layer="249" to-port="0" />
		<edge from-layer="249" from-port="2" to-layer="251" to-port="0" />
		<edge from-layer="250" from-port="0" to-layer="251" to-port="1" />
		<edge from-layer="251" from-port="2" to-layer="253" to-port="0" />
		<edge from-layer="252" from-port="0" to-layer="253" to-port="1" />
		<edge from-layer="253" from-port="2" to-layer="255" to-port="0" />
		<edge from-layer="254" from-port="0" to-layer="255" to-port="1" />
		<edge from-layer="255" from-port="2" to-layer="257" to-port="0" />
		<edge from-layer="256" from-port="0" to-layer="257" to-port="1" />
		<edge from-layer="257" from-port="2" to-layer="259" to-port="0" />
		<edge from-layer="258" from-port="0" to-layer="259" to-port="1" />
		<edge from-layer="259" from-port="2" to-layer="261" to-port="0" />
		<edge from-layer="260" from-port="0" to-layer="261" to-port="1" />
		<edge from-layer="261" from-port="2" to-layer="263" to-port="0" />
		<edge from-layer="261" from-port="2" to-layer="289" to-port="0" />
		<edge from-layer="262" from-port="0" to-layer="287" to-port="0" />
		<edge from-layer="263" from-port="1" to-layer="264" to-port="0" />
		<edge from-layer="264" from-port="1" to-layer="268" to-port="0" />
		<edge from-layer="265" from-port="0" to-layer="268" to-port="1" />
		<edge from-layer="266" from-port="0" to-layer="268" to-port="2" />
		<edge from-layer="267" from-port="0" to-layer="268" to-port="3" />
		<edge from-layer="268" from-port="4" to-layer="280" to-port="0" />
		<edge from-layer="268" from-port="4" to-layer="298" to-port="0" />
		<edge from-layer="268" from-port="4" to-layer="312" to-port="0" />
		<edge from-layer="268" from-port="4" to-layer="326" to-port="0" />
		<edge from-layer="268" from-port="4" to-layer="341" to-port="0" />
		<edge from-layer="268" from-port="4" to-layer="357" to-port="0" />
		<edge from-layer="268" from-port="4" to-layer="272" to-port="0" />
		<edge from-layer="269" from-port="0" to-layer="272" to-port="1" />
		<edge from-layer="270" from-port="0" to-layer="272" to-port="2" />
		<edge from-layer="271" from-port="0" to-layer="272" to-port="3" />
		<edge from-layer="272" from-port="4" to-layer="274" to-port="0" />
		<edge from-layer="273" from-port="0" to-layer="274" to-port="1" />
		<edge from-layer="274" from-port="2" to-layer="276" to-port="0" />
		<edge from-layer="275" from-port="0" to-layer="276" to-port="1" />
		<edge from-layer="276" from-port="2" to-layer="287" to-port="1" />
		<edge from-layer="277" from-port="0" to-layer="280" to-port="1" />
		<edge from-layer="278" from-port="0" to-layer="280" to-port="2" />
		<edge from-layer="279" from-port="0" to-layer="280" to-port="3" />
		<edge from-layer="280" from-port="4" to-layer="282" to-port="0" />
		<edge from-layer="281" from-port="0" to-layer="282" to-port="1" />
		<edge from-layer="282" from-port="2" to-layer="284" to-port="0" />
		<edge from-layer="283" from-port="0" to-layer="284" to-port="1" />
		<edge from-layer="284" from-port="2" to-layer="287" to-port="2" />
		<edge from-layer="285" from-port="0" to-layer="287" to-port="3" />
		<edge from-layer="286" from-port="0" to-layer="287" to-port="4" />
		<edge from-layer="287" from-port="5" to-layer="288" to-port="0" />
		<edge from-layer="288" from-port="1" to-layer="289" to-port="1" />
		<edge from-layer="289" from-port="2" to-layer="293" to-port="0" />
		<edge from-layer="289" from-port="2" to-layer="446" to-port="0" />
		<edge from-layer="289" from-port="2" to-layer="441" to-port="0" />
		<edge from-layer="289" from-port="2" to-layer="380" to-port="0" />
		<edge from-layer="290" from-port="0" to-layer="293" to-port="1" />
		<edge from-layer="291" from-port="0" to-layer="293" to-port="2" />
		<edge from-layer="292" from-port="0" to-layer="293" to-port="3" />
		<edge from-layer="293" from-port="4" to-layer="294" to-port="0" />
		<edge from-layer="294" from-port="1" to-layer="353" to-port="0" />
		<edge from-layer="295" from-port="0" to-layer="298" to-port="1" />
		<edge from-layer="296" from-port="0" to-layer="298" to-port="2" />
		<edge from-layer="297" from-port="0" to-layer="298" to-port="3" />
		<edge from-layer="298" from-port="4" to-layer="300" to-port="0" />
		<edge from-layer="299" from-port="0" to-layer="300" to-port="1" />
		<edge from-layer="300" from-port="2" to-layer="301" to-port="0" />
		<edge from-layer="301" from-port="1" to-layer="302" to-port="0" />
		<edge from-layer="302" from-port="1" to-layer="303" to-port="0" />
		<edge from-layer="303" from-port="1" to-layer="306" to-port="0" />
		<edge from-layer="304" from-port="0" to-layer="306" to-port="1" />
		<edge from-layer="305" from-port="0" to-layer="306" to-port="2" />
		<edge from-layer="306" from-port="4" to-layer="308" to-port="0" />
		<edge from-layer="307" from-port="0" to-layer="308" to-port="1" />
		<edge from-layer="308" from-port="2" to-layer="322" to-port="0" />
		<edge from-layer="309" from-port="0" to-layer="312" to-port="1" />
		<edge from-layer="310" from-port="0" to-layer="312" to-port="2" />
		<edge from-layer="311" from-port="0" to-layer="312" to-port="3" />
		<edge from-layer="312" from-port="4" to-layer="314" to-port="0" />
		<edge from-layer="313" from-port="0" to-layer="314" to-port="1" />
		<edge from-layer="314" from-port="2" to-layer="316" to-port="0" />
		<edge from-layer="315" from-port="0" to-layer="316" to-port="1" />
		<edge from-layer="316" from-port="2" to-layer="320" to-port="0" />
		<edge from-layer="317" from-port="0" to-layer="320" to-port="1" />
		<edge from-layer="318" from-port="0" to-layer="320" to-port="2" />
		<edge from-layer="319" from-port="0" to-layer="320" to-port="3" />
		<edge from-layer="320" from-port="4" to-layer="321" to-port="0" />
		<edge from-layer="321" from-port="1" to-layer="322" to-port="1" />
		<edge from-layer="322" from-port="2" to-layer="351" to-port="0" />
		<edge from-layer="323" from-port="0" to-layer="326" to-port="1" />
		<edge from-layer="324" from-port="0" to-layer="326" to-port="2" />
		<edge from-layer="325" from-port="0" to-layer="326" to-port="3" />
		<edge from-layer="326" from-port="4" to-layer="328" to-port="0" />
		<edge from-layer="327" from-port="0" to-layer="328" to-port="1" />
		<edge from-layer="328" from-port="2" to-layer="329" to-port="0" />
		<edge from-layer="329" from-port="1" to-layer="330" to-port="0" />
		<edge from-layer="330" from-port="1" to-layer="331" to-port="0" />
		<edge from-layer="331" from-port="1" to-layer="334" to-port="0" />
		<edge from-layer="332" from-port="0" to-layer="334" to-port="1" />
		<edge from-layer="333" from-port="0" to-layer="334" to-port="2" />
		<edge from-layer="334" from-port="4" to-layer="336" to-port="0" />
		<edge from-layer="335" from-port="0" to-layer="336" to-port="1" />
		<edge from-layer="336" from-port="2" to-layer="350" to-port="0" />
		<edge from-layer="337" from-port="0" to-layer="348" to-port="0" />
		<edge from-layer="338" from-port="0" to-layer="341" to-port="1" />
		<edge from-layer="339" from-port="0" to-layer="341" to-port="2" />
		<edge from-layer="340" from-port="0" to-layer="341" to-port="3" />
		<edge from-layer="341" from-port="4" to-layer="343" to-port="0" />
		<edge from-layer="342" from-port="0" to-layer="343" to-port="1" />
		<edge from-layer="343" from-port="2" to-layer="345" to-port="0" />
		<edge from-layer="344" from-port="0" to-layer="345" to-port="1" />
		<edge from-layer="345" from-port="2" to-layer="348" to-port="1" />
		<edge from-layer="346" from-port="0" to-layer="348" to-port="2" />
		<edge from-layer="347" from-port="0" to-layer="348" to-port="3" />
		<edge from-layer="348" from-port="4" to-layer="349" to-port="0" />
		<edge from-layer="349" from-port="1" to-layer="350" to-port="1" />
		<edge from-layer="350" from-port="2" to-layer="351" to-port="1" />
		<edge from-layer="351" from-port="2" to-layer="352" to-port="0" />
		<edge from-layer="352" from-port="1" to-layer="353" to-port="1" />
		<edge from-layer="353" from-port="2" to-layer="359" to-port="0" />
		<edge from-layer="354" from-port="0" to-layer="357" to-port="1" />
		<edge from-layer="355" from-port="0" to-layer="357" to-port="2" />
		<edge from-layer="356" from-port="0" to-layer="357" to-port="3" />
		<edge from-layer="357" from-port="4" to-layer="358" to-port="0" />
		<edge from-layer="358" from-port="1" to-layer="359" to-port="1" />
		<edge from-layer="359" from-port="2" to-layer="363" to-port="0" />
		<edge from-layer="360" from-port="0" to-layer="363" to-port="1" />
		<edge from-layer="361" from-port="0" to-layer="363" to-port="2" />
		<edge from-layer="362" from-port="0" to-layer="363" to-port="3" />
		<edge from-layer="363" from-port="4" to-layer="374" to-port="0" />
		<edge from-layer="364" from-port="1" to-layer="373" to-port="1" />
		<edge from-layer="364" from-port="1" to-layer="375" to-port="0" />
		<edge from-layer="364" from-port="1" to-layer="370" to-port="0" />
		<edge from-layer="364" from-port="1" to-layer="365" to-port="0" />
		<edge from-layer="365" from-port="2" to-layer="367" to-port="0" />
		<edge from-layer="366" from-port="0" to-layer="367" to-port="1" />
		<edge from-layer="367" from-port="2" to-layer="368" to-port="1" />
		<edge from-layer="368" from-port="2" to-layer="369" to-port="0" />
		<edge from-layer="369" from-port="1" to-layer="370" to-port="1" />
		<edge from-layer="369" from-port="1" to-layer="375" to-port="1" />
		<edge from-layer="370" from-port="2" to-layer="372" to-port="0" />
		<edge from-layer="371" from-port="0" to-layer="372" to-port="1" />
		<edge from-layer="372" from-port="2" to-layer="373" to-port="0" />
		<edge from-layer="373" from-port="2" to-layer="374" to-port="1" />
		<edge from-layer="374" from-port="2" to-layer="376" to-port="0" />
		<edge from-layer="375" from-port="2" to-layer="376" to-port="1" />
		<edge from-layer="375" from-port="2" to-layer="394" to-port="1" />
		<edge from-layer="376" from-port="2" to-layer="397" to-port="0" />
		<edge from-layer="376" from-port="2" to-layer="408" to-port="0" />
		<edge from-layer="377" from-port="0" to-layer="380" to-port="1" />
		<edge from-layer="378" from-port="0" to-layer="380" to-port="2" />
		<edge from-layer="379" from-port="0" to-layer="380" to-port="3" />
		<edge from-layer="380" from-port="4" to-layer="381" to-port="0" />
		<edge from-layer="381" from-port="1" to-layer="383" to-port="0" />
		<edge from-layer="382" from-port="0" to-layer="383" to-port="1" />
		<edge from-layer="383" from-port="2" to-layer="389" to-port="0" />
		<edge from-layer="384" from-port="0" to-layer="387" to-port="1" />
		<edge from-layer="385" from-port="0" to-layer="387" to-port="2" />
		<edge from-layer="386" from-port="0" to-layer="387" to-port="3" />
		<edge from-layer="387" from-port="4" to-layer="388" to-port="0" />
		<edge from-layer="388" from-port="1" to-layer="389" to-port="1" />
		<edge from-layer="389" from-port="2" to-layer="393" to-port="0" />
		<edge from-layer="390" from-port="0" to-layer="393" to-port="1" />
		<edge from-layer="391" from-port="0" to-layer="393" to-port="2" />
		<edge from-layer="392" from-port="0" to-layer="393" to-port="3" />
		<edge from-layer="393" from-port="4" to-layer="394" to-port="0" />
		<edge from-layer="394" from-port="2" to-layer="396" to-port="0" />
		<edge from-layer="394" from-port="2" to-layer="407" to-port="0" />
		<edge from-layer="395" from-port="0" to-layer="396" to-port="1" />
		<edge from-layer="396" from-port="2" to-layer="397" to-port="1" />
		<edge from-layer="397" from-port="2" to-layer="405" to-port="0" />
		<edge from-layer="397" from-port="2" to-layer="401" to-port="0" />
		<edge from-layer="398" from-port="0" to-layer="401" to-port="1" />
		<edge from-layer="399" from-port="0" to-layer="401" to-port="2" />
		<edge from-layer="400" from-port="0" to-layer="401" to-port="3" />
		<edge from-layer="401" from-port="4" to-layer="417" to-port="0" />
		<edge from-layer="402" from-port="0" to-layer="405" to-port="1" />
		<edge from-layer="403" from-port="0" to-layer="405" to-port="2" />
		<edge from-layer="404" from-port="0" to-layer="405" to-port="3" />
		<edge from-layer="405" from-port="4" to-layer="417" to-port="1" />
		<edge from-layer="406" from-port="0" to-layer="407" to-port="1" />
		<edge from-layer="407" from-port="2" to-layer="408" to-port="1" />
		<edge from-layer="408" from-port="2" to-layer="412" to-port="0" />
		<edge from-layer="408" from-port="2" to-layer="416" to-port="0" />
		<edge from-layer="409" from-port="0" to-layer="412" to-port="1" />
		<edge from-layer="410" from-port="0" to-layer="412" to-port="2" />
		<edge from-layer="411" from-port="0" to-layer="412" to-port="3" />
		<edge from-layer="412" from-port="4" to-layer="417" to-port="2" />
		<edge from-layer="413" from-port="0" to-layer="416" to-port="1" />
		<edge from-layer="414" from-port="0" to-layer="416" to-port="2" />
		<edge from-layer="415" from-port="0" to-layer="416" to-port="3" />
		<edge from-layer="416" from-port="4" to-layer="417" to-port="3" />
		<edge from-layer="417" from-port="4" to-layer="419" to-port="0" />
		<edge from-layer="418" from-port="2" to-layer="419" to-port="1" />
		<edge from-layer="419" from-port="2" to-layer="421" to-port="0" />
		<edge from-layer="420" from-port="0" to-layer="421" to-port="1" />
		<edge from-layer="421" from-port="2" to-layer="422" to-port="1" />
		<edge from-layer="422" from-port="2" to-layer="424" to-port="0" />
		<edge from-layer="423" from-port="0" to-layer="424" to-port="1" />
		<edge from-layer="424" from-port="2" to-layer="465" to-port="0" />
		<edge from-layer="424" from-port="2" to-layer="459" to-port="0" />
		<edge from-layer="425" from-port="0" to-layer="428" to-port="1" />
		<edge from-layer="426" from-port="0" to-layer="428" to-port="2" />
		<edge from-layer="427" from-port="0" to-layer="428" to-port="3" />
		<edge from-layer="428" from-port="4" to-layer="429" to-port="0" />
		<edge from-layer="429" from-port="1" to-layer="435" to-port="0" />
		<edge from-layer="430" from-port="0" to-layer="433" to-port="1" />
		<edge from-layer="431" from-port="0" to-layer="433" to-port="2" />
		<edge from-layer="432" from-port="0" to-layer="433" to-port="3" />
		<edge from-layer="433" from-port="4" to-layer="434" to-port="0" />
		<edge from-layer="434" from-port="1" to-layer="435" to-port="1" />
		<edge from-layer="435" from-port="2" to-layer="437" to-port="0" />
		<edge from-layer="436" from-port="0" to-layer="437" to-port="1" />
		<edge from-layer="437" from-port="2" to-layer="451" to-port="0" />
		<edge from-layer="438" from-port="0" to-layer="441" to-port="1" />
		<edge from-layer="439" from-port="0" to-layer="441" to-port="2" />
		<edge from-layer="440" from-port="0" to-layer="441" to-port="3" />
		<edge from-layer="441" from-port="4" to-layer="442" to-port="0" />
		<edge from-layer="442" from-port="1" to-layer="448" to-port="0" />
		<edge from-layer="443" from-port="0" to-layer="446" to-port="1" />
		<edge from-layer="444" from-port="0" to-layer="446" to-port="2" />
		<edge from-layer="445" from-port="0" to-layer="446" to-port="3" />
		<edge from-layer="446" from-port="4" to-layer="447" to-port="0" />
		<edge from-layer="447" from-port="1" to-layer="448" to-port="1" />
		<edge from-layer="448" from-port="2" to-layer="450" to-port="0" />
		<edge from-layer="449" from-port="0" to-layer="450" to-port="1" />
		<edge from-layer="450" from-port="2" to-layer="451" to-port="1" />
		<edge from-layer="451" from-port="2" to-layer="453" to-port="0" />
		<edge from-layer="452" from-port="0" to-layer="453" to-port="1" />
		<edge from-layer="453" from-port="2" to-layer="455" to-port="0" />
		<edge from-layer="454" from-port="0" to-layer="455" to-port="1" />
		<edge from-layer="455" from-port="2" to-layer="459" to-port="1" />
		<edge from-layer="455" from-port="2" to-layer="464" to-port="0" />
		<edge from-layer="456" from-port="0" to-layer="459" to-port="2" />
		<edge from-layer="457" from-port="0" to-layer="459" to-port="3" />
		<edge from-layer="458" from-port="0" to-layer="459" to-port="4" />
		<edge from-layer="459" from-port="5" to-layer="461" to-port="0" />
		<edge from-layer="460" from-port="0" to-layer="461" to-port="1" />
		<edge from-layer="461" from-port="2" to-layer="462" to-port="0" />
		<edge from-layer="462" from-port="1" to-layer="463" to-port="0" />
	</edges>
	<rt_info>
		<MO_version value="2022.3.0-9052-9752fafe8eb-releases/2022/3" />
		<Runtime_version value="2022.3.0-9052-9752fafe8eb-releases/2022/3" />
		<conversion_parameters>
			<data_type value="FP32" />
			<framework value="onnx" />
			<input value="input_1,image_shape" />
			<input_model value="DIR\tiny-yolov3-11.onnx" />
			<input_shape value="[1, 3, 416, 416],[1, 2]" />
			<layout value="input_1(NCHW),image_shape(NC)" />
			<model_name value="yolo-v3-tiny-onnx" />
			<output_dir value="C:\development\Trinity\openvino_inference_demo\public\yolo-v3-tiny-onnx\FP32" />
			<reverse_input_channels value="True" />
			<scale_values value="input_1[255]" />
		</conversion_parameters>
		<legacy_frontend value="False" />
	</rt_info>
</net>
